node {
  name: "Placeholder"
  op: "Placeholder"
  attr {
    key: "_output_shapes"
    value {
      list {
        shape {
          dim {
            size: 6000
          }
          dim {
            size: 64
          }
          dim {
            size: 64
          }
          dim {
            size: 64
          }
          dim {
            size: 1
          }
        }
      }
    }
  }
  attr {
    key: "dtype"
    value {
      type: DT_FLOAT
    }
  }
  attr {
    key: "shape"
    value {
      shape {
        dim {
          size: 6000
        }
        dim {
          size: 64
        }
        dim {
          size: 64
        }
        dim {
          size: 64
        }
        dim {
          size: 1
        }
      }
    }
  }
}
node {
  name: "TensorSliceDataset"
  op: "TensorSliceDataset"
  input: "Placeholder"
  attr {
    key: "Toutput_types"
    value {
      list {
        type: DT_FLOAT
      }
    }
  }
  attr {
    key: "_output_shapes"
    value {
      list {
        shape {
        }
      }
    }
  }
  attr {
    key: "output_shapes"
    value {
      list {
        shape {
          dim {
            size: 64
          }
          dim {
            size: 64
          }
          dim {
            size: 64
          }
          dim {
            size: 1
          }
        }
      }
    }
  }
}
node {
  name: "buffer_size"
  op: "Const"
  attr {
    key: "_output_shapes"
    value {
      list {
        shape {
        }
      }
    }
  }
  attr {
    key: "dtype"
    value {
      type: DT_INT64
    }
  }
  attr {
    key: "value"
    value {
      tensor {
        dtype: DT_INT64
        tensor_shape {
        }
        int64_val: 6000
      }
    }
  }
}
node {
  name: "seed"
  op: "Const"
  attr {
    key: "_output_shapes"
    value {
      list {
        shape {
        }
      }
    }
  }
  attr {
    key: "dtype"
    value {
      type: DT_INT64
    }
  }
  attr {
    key: "value"
    value {
      tensor {
        dtype: DT_INT64
        tensor_shape {
        }
        int64_val: 0
      }
    }
  }
}
node {
  name: "seed2"
  op: "Const"
  attr {
    key: "_output_shapes"
    value {
      list {
        shape {
        }
      }
    }
  }
  attr {
    key: "dtype"
    value {
      type: DT_INT64
    }
  }
  attr {
    key: "value"
    value {
      tensor {
        dtype: DT_INT64
        tensor_shape {
        }
        int64_val: 0
      }
    }
  }
}
node {
  name: "ShuffleDataset"
  op: "ShuffleDataset"
  input: "TensorSliceDataset"
  input: "buffer_size"
  input: "seed"
  input: "seed2"
  attr {
    key: "_output_shapes"
    value {
      list {
        shape {
        }
      }
    }
  }
  attr {
    key: "output_shapes"
    value {
      list {
        shape {
          dim {
            size: 64
          }
          dim {
            size: 64
          }
          dim {
            size: 64
          }
          dim {
            size: 1
          }
        }
      }
    }
  }
  attr {
    key: "output_types"
    value {
      list {
        type: DT_FLOAT
      }
    }
  }
  attr {
    key: "reshuffle_each_iteration"
    value {
      b: true
    }
  }
}
node {
  name: "count"
  op: "Const"
  attr {
    key: "_output_shapes"
    value {
      list {
        shape {
        }
      }
    }
  }
  attr {
    key: "dtype"
    value {
      type: DT_INT64
    }
  }
  attr {
    key: "value"
    value {
      tensor {
        dtype: DT_INT64
        tensor_shape {
        }
        int64_val: -1
      }
    }
  }
}
node {
  name: "RepeatDataset"
  op: "RepeatDataset"
  input: "ShuffleDataset"
  input: "count"
  attr {
    key: "_output_shapes"
    value {
      list {
        shape {
        }
      }
    }
  }
  attr {
    key: "output_shapes"
    value {
      list {
        shape {
          dim {
            size: 64
          }
          dim {
            size: 64
          }
          dim {
            size: 64
          }
          dim {
            size: 1
          }
        }
      }
    }
  }
  attr {
    key: "output_types"
    value {
      list {
        type: DT_FLOAT
      }
    }
  }
}
node {
  name: "batch_size"
  op: "Const"
  attr {
    key: "_output_shapes"
    value {
      list {
        shape {
        }
      }
    }
  }
  attr {
    key: "dtype"
    value {
      type: DT_INT64
    }
  }
  attr {
    key: "value"
    value {
      tensor {
        dtype: DT_INT64
        tensor_shape {
        }
        int64_val: 8
      }
    }
  }
}
node {
  name: "drop_remainder"
  op: "Const"
  attr {
    key: "_output_shapes"
    value {
      list {
        shape {
        }
      }
    }
  }
  attr {
    key: "dtype"
    value {
      type: DT_BOOL
    }
  }
  attr {
    key: "value"
    value {
      tensor {
        dtype: DT_BOOL
        tensor_shape {
        }
        bool_val: false
      }
    }
  }
}
node {
  name: "BatchDatasetV2"
  op: "BatchDatasetV2"
  input: "RepeatDataset"
  input: "batch_size"
  input: "drop_remainder"
  attr {
    key: "_output_shapes"
    value {
      list {
        shape {
        }
      }
    }
  }
  attr {
    key: "output_shapes"
    value {
      list {
        shape {
          dim {
            size: -1
          }
          dim {
            size: 64
          }
          dim {
            size: 64
          }
          dim {
            size: 64
          }
          dim {
            size: 1
          }
        }
      }
    }
  }
  attr {
    key: "output_types"
    value {
      list {
        type: DT_FLOAT
      }
    }
  }
  attr {
    key: "parallel_copy"
    value {
      b: false
    }
  }
}
node {
  name: "buffer_size_1"
  op: "Const"
  attr {
    key: "_output_shapes"
    value {
      list {
        shape {
        }
      }
    }
  }
  attr {
    key: "dtype"
    value {
      type: DT_INT64
    }
  }
  attr {
    key: "value"
    value {
      tensor {
        dtype: DT_INT64
        tensor_shape {
        }
        int64_val: 16
      }
    }
  }
}
node {
  name: "PrefetchDataset"
  op: "PrefetchDataset"
  input: "BatchDatasetV2"
  input: "buffer_size_1"
  attr {
    key: "_output_shapes"
    value {
      list {
        shape {
        }
      }
    }
  }
  attr {
    key: "output_shapes"
    value {
      list {
        shape {
          dim {
            size: -1
          }
          dim {
            size: 64
          }
          dim {
            size: 64
          }
          dim {
            size: 64
          }
          dim {
            size: 1
          }
        }
      }
    }
  }
  attr {
    key: "output_types"
    value {
      list {
        type: DT_FLOAT
      }
    }
  }
  attr {
    key: "slack_period"
    value {
      i: 0
    }
  }
}
node {
  name: "optimizations"
  op: "Const"
  attr {
    key: "_output_shapes"
    value {
      list {
        shape {
          dim {
            size: 3
          }
        }
      }
    }
  }
  attr {
    key: "dtype"
    value {
      type: DT_STRING
    }
  }
  attr {
    key: "value"
    value {
      tensor {
        dtype: DT_STRING
        tensor_shape {
          dim {
            size: 3
          }
        }
        string_val: "map_and_batch_fusion"
        string_val: "noop_elimination"
        string_val: "shuffle_and_repeat_fusion"
      }
    }
  }
}
node {
  name: "OptimizeDataset"
  op: "OptimizeDataset"
  input: "PrefetchDataset"
  input: "optimizations"
  attr {
    key: "_output_shapes"
    value {
      list {
        shape {
        }
      }
    }
  }
  attr {
    key: "optimization_configs"
    value {
      list {
        s: "map_vectorization:use_choose_fastest:false"
      }
    }
  }
  attr {
    key: "output_shapes"
    value {
      list {
        shape {
          dim {
            size: -1
          }
          dim {
            size: 64
          }
          dim {
            size: 64
          }
          dim {
            size: 64
          }
          dim {
            size: 1
          }
        }
      }
    }
  }
  attr {
    key: "output_types"
    value {
      list {
        type: DT_FLOAT
      }
    }
  }
}
node {
  name: "ModelDataset"
  op: "ModelDataset"
  input: "OptimizeDataset"
  attr {
    key: "_output_shapes"
    value {
      list {
        shape {
        }
      }
    }
  }
  attr {
    key: "cpu_budget"
    value {
      i: 0
    }
  }
  attr {
    key: "output_shapes"
    value {
      list {
        shape {
          dim {
            size: -1
          }
          dim {
            size: 64
          }
          dim {
            size: 64
          }
          dim {
            size: 64
          }
          dim {
            size: 1
          }
        }
      }
    }
  }
  attr {
    key: "output_types"
    value {
      list {
        type: DT_FLOAT
      }
    }
  }
}
node {
  name: "IteratorV2"
  op: "IteratorV2"
  attr {
    key: "_output_shapes"
    value {
      list {
        shape {
        }
      }
    }
  }
  attr {
    key: "container"
    value {
      s: ""
    }
  }
  attr {
    key: "output_shapes"
    value {
      list {
        shape {
          dim {
            size: -1
          }
          dim {
            size: 64
          }
          dim {
            size: 64
          }
          dim {
            size: 64
          }
          dim {
            size: 1
          }
        }
      }
    }
  }
  attr {
    key: "output_types"
    value {
      list {
        type: DT_FLOAT
      }
    }
  }
  attr {
    key: "shared_name"
    value {
      s: ""
    }
  }
}
node {
  name: "MakeIterator"
  op: "MakeIterator"
  input: "ModelDataset"
  input: "IteratorV2"
  attr {
    key: "_class"
    value {
      list {
        s: "loc:@IteratorV2"
      }
    }
  }
}
node {
  name: "IteratorToStringHandle"
  op: "IteratorToStringHandle"
  input: "IteratorV2"
  attr {
    key: "_output_shapes"
    value {
      list {
        shape {
        }
      }
    }
  }
}
node {
  name: "IteratorGetNext"
  op: "IteratorGetNext"
  input: "IteratorV2"
  attr {
    key: "_output_shapes"
    value {
      list {
        shape {
          dim {
            size: -1
          }
          dim {
            size: 64
          }
          dim {
            size: 64
          }
          dim {
            size: 64
          }
          dim {
            size: 1
          }
        }
      }
    }
  }
  attr {
    key: "output_shapes"
    value {
      list {
        shape {
          dim {
            size: -1
          }
          dim {
            size: 64
          }
          dim {
            size: 64
          }
          dim {
            size: 64
          }
          dim {
            size: 1
          }
        }
      }
    }
  }
  attr {
    key: "output_types"
    value {
      list {
        type: DT_FLOAT
      }
    }
  }
}
node {
  name: "analysis_transform/layer_0/kernel_rdft/Initializer/truncated_normal/shape"
  op: "Const"
  attr {
    key: "_class"
    value {
      list {
        s: "loc:@analysis_transform/layer_0/kernel_rdft"
      }
    }
  }
  attr {
    key: "_output_shapes"
    value {
      list {
        shape {
          dim {
            size: 5
          }
        }
      }
    }
  }
  attr {
    key: "dtype"
    value {
      type: DT_INT32
    }
  }
  attr {
    key: "value"
    value {
      tensor {
        dtype: DT_INT32
        tensor_shape {
          dim {
            size: 5
          }
        }
        tensor_content: "\005\000\000\000\005\000\000\000\005\000\000\000\001\000\000\000 \000\000\000"
      }
    }
  }
}
node {
  name: "analysis_transform/layer_0/kernel_rdft/Initializer/truncated_normal/mean"
  op: "Const"
  attr {
    key: "_class"
    value {
      list {
        s: "loc:@analysis_transform/layer_0/kernel_rdft"
      }
    }
  }
  attr {
    key: "_output_shapes"
    value {
      list {
        shape {
        }
      }
    }
  }
  attr {
    key: "dtype"
    value {
      type: DT_FLOAT
    }
  }
  attr {
    key: "value"
    value {
      tensor {
        dtype: DT_FLOAT
        tensor_shape {
        }
        float_val: 0.0
      }
    }
  }
}
node {
  name: "analysis_transform/layer_0/kernel_rdft/Initializer/truncated_normal/stddev"
  op: "Const"
  attr {
    key: "_class"
    value {
      list {
        s: "loc:@analysis_transform/layer_0/kernel_rdft"
      }
    }
  }
  attr {
    key: "_output_shapes"
    value {
      list {
        shape {
        }
      }
    }
  }
  attr {
    key: "dtype"
    value {
      type: DT_FLOAT
    }
  }
  attr {
    key: "value"
    value {
      tensor {
        dtype: DT_FLOAT
        tensor_shape {
        }
        float_val: 0.10168270766735077
      }
    }
  }
}
node {
  name: "analysis_transform/layer_0/kernel_rdft/Initializer/truncated_normal/TruncatedNormal"
  op: "TruncatedNormal"
  input: "analysis_transform/layer_0/kernel_rdft/Initializer/truncated_normal/shape"
  attr {
    key: "T"
    value {
      type: DT_INT32
    }
  }
  attr {
    key: "_class"
    value {
      list {
        s: "loc:@analysis_transform/layer_0/kernel_rdft"
      }
    }
  }
  attr {
    key: "_output_shapes"
    value {
      list {
        shape {
          dim {
            size: 5
          }
          dim {
            size: 5
          }
          dim {
            size: 5
          }
          dim {
            size: 1
          }
          dim {
            size: 32
          }
        }
      }
    }
  }
  attr {
    key: "dtype"
    value {
      type: DT_FLOAT
    }
  }
  attr {
    key: "seed"
    value {
      i: 0
    }
  }
  attr {
    key: "seed2"
    value {
      i: 0
    }
  }
}
node {
  name: "analysis_transform/layer_0/kernel_rdft/Initializer/truncated_normal/mul"
  op: "Mul"
  input: "analysis_transform/layer_0/kernel_rdft/Initializer/truncated_normal/TruncatedNormal"
  input: "analysis_transform/layer_0/kernel_rdft/Initializer/truncated_normal/stddev"
  attr {
    key: "T"
    value {
      type: DT_FLOAT
    }
  }
  attr {
    key: "_class"
    value {
      list {
        s: "loc:@analysis_transform/layer_0/kernel_rdft"
      }
    }
  }
  attr {
    key: "_output_shapes"
    value {
      list {
        shape {
          dim {
            size: 5
          }
          dim {
            size: 5
          }
          dim {
            size: 5
          }
          dim {
            size: 1
          }
          dim {
            size: 32
          }
        }
      }
    }
  }
}
node {
  name: "analysis_transform/layer_0/kernel_rdft/Initializer/truncated_normal"
  op: "Add"
  input: "analysis_transform/layer_0/kernel_rdft/Initializer/truncated_normal/mul"
  input: "analysis_transform/layer_0/kernel_rdft/Initializer/truncated_normal/mean"
  attr {
    key: "T"
    value {
      type: DT_FLOAT
    }
  }
  attr {
    key: "_class"
    value {
      list {
        s: "loc:@analysis_transform/layer_0/kernel_rdft"
      }
    }
  }
  attr {
    key: "_output_shapes"
    value {
      list {
        shape {
          dim {
            size: 5
          }
          dim {
            size: 5
          }
          dim {
            size: 5
          }
          dim {
            size: 1
          }
          dim {
            size: 32
          }
        }
      }
    }
  }
}
node {
  name: "analysis_transform/layer_0/kernel_rdft/Initializer/Reshape/shape"
  op: "Const"
  attr {
    key: "_class"
    value {
      list {
        s: "loc:@analysis_transform/layer_0/kernel_rdft"
      }
    }
  }
  attr {
    key: "_output_shapes"
    value {
      list {
        shape {
          dim {
            size: 2
          }
        }
      }
    }
  }
  attr {
    key: "dtype"
    value {
      type: DT_INT32
    }
  }
  attr {
    key: "value"
    value {
      tensor {
        dtype: DT_INT32
        tensor_shape {
          dim {
            size: 2
          }
        }
        tensor_content: "\377\377\377\377 \000\000\000"
      }
    }
  }
}
node {
  name: "analysis_transform/layer_0/kernel_rdft/Initializer/Reshape"
  op: "Reshape"
  input: "analysis_transform/layer_0/kernel_rdft/Initializer/truncated_normal"
  input: "analysis_transform/layer_0/kernel_rdft/Initializer/Reshape/shape"
  attr {
    key: "T"
    value {
      type: DT_FLOAT
    }
  }
  attr {
    key: "Tshape"
    value {
      type: DT_INT32
    }
  }
  attr {
    key: "_class"
    value {
      list {
        s: "loc:@analysis_transform/layer_0/kernel_rdft"
      }
    }
  }
  attr {
    key: "_output_shapes"
    value {
      list {
        shape {
          dim {
            size: 125
          }
          dim {
            size: 32
          }
        }
      }
    }
  }
}
node {
  name: "analysis_transform/layer_0/kernel_rdft/Initializer/irdft_5x5x5"
  op: "Const"
  attr {
    key: "_class"
    value {
      list {
        s: "loc:@analysis_transform/layer_0/kernel_rdft"
      }
    }
  }
  attr {
    key: "_output_shapes"
    value {
      list {
        shape {
          dim {
            size: 125
          }
          dim {
            size: 125
          }
        }
      }
    }
  }
  attr {
    key: "dtype"
    value {
      type: DT_FLOAT
    }
  }
  attr {
    key: "value"
    value {
      tensor {
        dtype: DT_FLOAT
        tensor_shape {
          dim {
            size: 125
          }
          dim {
            size: 125
          }
        }
        tensor_content: "…"
      }
    }
  }
}
node {
  name: "analysis_transform/layer_0/kernel_rdft/Initializer/MatMul"
  op: "MatMul"
  input: "analysis_transform/layer_0/kernel_rdft/Initializer/irdft_5x5x5"
  input: "analysis_transform/layer_0/kernel_rdft/Initializer/Reshape"
  attr {
    key: "T"
    value {
      type: DT_FLOAT
    }
  }
  attr {
    key: "_class"
    value {
      list {
        s: "loc:@analysis_transform/layer_0/kernel_rdft"
      }
    }
  }
  attr {
    key: "_output_shapes"
    value {
      list {
        shape {
          dim {
            size: 125
          }
          dim {
            size: 32
          }
        }
      }
    }
  }
  attr {
    key: "transpose_a"
    value {
      b: true
    }
  }
  attr {
    key: "transpose_b"
    value {
      b: false
    }
  }
}
node {
  name: "analysis_transform/layer_0/kernel_rdft"
  op: "VarHandleOp"
  attr {
    key: "_class"
    value {
      list {
        s: "loc:@analysis_transform/layer_0/kernel_rdft"
      }
    }
  }
  attr {
    key: "_output_shapes"
    value {
      list {
        shape {
        }
      }
    }
  }
  attr {
    key: "container"
    value {
      s: ""
    }
  }
  attr {
    key: "dtype"
    value {
      type: DT_FLOAT
    }
  }
  attr {
    key: "shape"
    value {
      shape {
        dim {
          size: 125
        }
        dim {
          size: 32
        }
      }
    }
  }
  attr {
    key: "shared_name"
    value {
      s: "analysis_transform/layer_0/kernel_rdft"
    }
  }
}
node {
  name: "analysis_transform/layer_0/kernel_rdft/IsInitialized/VarIsInitializedOp"
  op: "VarIsInitializedOp"
  input: "analysis_transform/layer_0/kernel_rdft"
  attr {
    key: "_output_shapes"
    value {
      list {
        shape {
        }
      }
    }
  }
}
node {
  name: "analysis_transform/layer_0/kernel_rdft/Assign"
  op: "AssignVariableOp"
  input: "analysis_transform/layer_0/kernel_rdft"
  input: "analysis_transform/layer_0/kernel_rdft/Initializer/MatMul"
  attr {
    key: "_class"
    value {
      list {
        s: "loc:@analysis_transform/layer_0/kernel_rdft"
      }
    }
  }
  attr {
    key: "dtype"
    value {
      type: DT_FLOAT
    }
  }
}
node {
  name: "analysis_transform/layer_0/kernel_rdft/Read/ReadVariableOp"
  op: "ReadVariableOp"
  input: "analysis_transform/layer_0/kernel_rdft"
  attr {
    key: "_class"
    value {
      list {
        s: "loc:@analysis_transform/layer_0/kernel_rdft"
      }
    }
  }
  attr {
    key: "_output_shapes"
    value {
      list {
        shape {
          dim {
            size: 125
          }
          dim {
            size: 32
          }
        }
      }
    }
  }
  attr {
    key: "dtype"
    value {
      type: DT_FLOAT
    }
  }
}
node {
  name: "analysis_transform/layer_0/MatMul/ReadVariableOp"
  op: "ReadVariableOp"
  input: "analysis_transform/layer_0/kernel_rdft"
  attr {
    key: "_output_shapes"
    value {
      list {
        shape {
          dim {
            size: 125
          }
          dim {
            size: 32
          }
        }
      }
    }
  }
  attr {
    key: "dtype"
    value {
      type: DT_FLOAT
    }
  }
}
node {
  name: "analysis_transform/layer_0/MatMul"
  op: "MatMul"
  input: "analysis_transform/layer_0/kernel_rdft/Initializer/irdft_5x5x5"
  input: "analysis_transform/layer_0/MatMul/ReadVariableOp"
  attr {
    key: "T"
    value {
      type: DT_FLOAT
    }
  }
  attr {
    key: "_output_shapes"
    value {
      list {
        shape {
          dim {
            size: 125
          }
          dim {
            size: 32
          }
        }
      }
    }
  }
  attr {
    key: "transpose_a"
    value {
      b: false
    }
  }
  attr {
    key: "transpose_b"
    value {
      b: false
    }
  }
}
node {
  name: "analysis_transform/layer_0/Reshape/shape"
  op: "Const"
  attr {
    key: "_output_shapes"
    value {
      list {
        shape {
          dim {
            size: 5
          }
        }
      }
    }
  }
  attr {
    key: "dtype"
    value {
      type: DT_INT32
    }
  }
  attr {
    key: "value"
    value {
      tensor {
        dtype: DT_INT32
        tensor_shape {
          dim {
            size: 5
          }
        }
        tensor_content: "\005\000\000\000\005\000\000\000\005\000\000\000\001\000\000\000 \000\000\000"
      }
    }
  }
}
node {
  name: "analysis_transform/layer_0/Reshape"
  op: "Reshape"
  input: "analysis_transform/layer_0/MatMul"
  input: "analysis_transform/layer_0/Reshape/shape"
  attr {
    key: "T"
    value {
      type: DT_FLOAT
    }
  }
  attr {
    key: "Tshape"
    value {
      type: DT_INT32
    }
  }
  attr {
    key: "_output_shapes"
    value {
      list {
        shape {
          dim {
            size: 5
          }
          dim {
            size: 5
          }
          dim {
            size: 5
          }
          dim {
            size: 1
          }
          dim {
            size: 32
          }
        }
      }
    }
  }
}
node {
  name: "analysis_transform/layer_0/bias/Initializer/zeros"
  op: "Const"
  attr {
    key: "_class"
    value {
      list {
        s: "loc:@analysis_transform/layer_0/bias"
      }
    }
  }
  attr {
    key: "_output_shapes"
    value {
      list {
        shape {
          dim {
            size: 32
          }
        }
      }
    }
  }
  attr {
    key: "dtype"
    value {
      type: DT_FLOAT
    }
  }
  attr {
    key: "value"
    value {
      tensor {
        dtype: DT_FLOAT
        tensor_shape {
          dim {
            size: 32
          }
        }
        float_val: 0.0
      }
    }
  }
}
node {
  name: "analysis_transform/layer_0/bias"
  op: "VarHandleOp"
  attr {
    key: "_class"
    value {
      list {
        s: "loc:@analysis_transform/layer_0/bias"
      }
    }
  }
  attr {
    key: "_output_shapes"
    value {
      list {
        shape {
        }
      }
    }
  }
  attr {
    key: "container"
    value {
      s: ""
    }
  }
  attr {
    key: "dtype"
    value {
      type: DT_FLOAT
    }
  }
  attr {
    key: "shape"
    value {
      shape {
        dim {
          size: 32
        }
      }
    }
  }
  attr {
    key: "shared_name"
    value {
      s: "analysis_transform/layer_0/bias"
    }
  }
}
node {
  name: "analysis_transform/layer_0/bias/IsInitialized/VarIsInitializedOp"
  op: "VarIsInitializedOp"
  input: "analysis_transform/layer_0/bias"
  attr {
    key: "_output_shapes"
    value {
      list {
        shape {
        }
      }
    }
  }
}
node {
  name: "analysis_transform/layer_0/bias/Assign"
  op: "AssignVariableOp"
  input: "analysis_transform/layer_0/bias"
  input: "analysis_transform/layer_0/bias/Initializer/zeros"
  attr {
    key: "_class"
    value {
      list {
        s: "loc:@analysis_transform/layer_0/bias"
      }
    }
  }
  attr {
    key: "dtype"
    value {
      type: DT_FLOAT
    }
  }
}
node {
  name: "analysis_transform/layer_0/bias/Read/ReadVariableOp"
  op: "ReadVariableOp"
  input: "analysis_transform/layer_0/bias"
  attr {
    key: "_class"
    value {
      list {
        s: "loc:@analysis_transform/layer_0/bias"
      }
    }
  }
  attr {
    key: "_output_shapes"
    value {
      list {
        shape {
          dim {
            size: 32
          }
        }
      }
    }
  }
  attr {
    key: "dtype"
    value {
      type: DT_FLOAT
    }
  }
}
node {
  name: "analysis_transform/layer_0/MirrorPad/paddings"
  op: "Const"
  attr {
    key: "_output_shapes"
    value {
      list {
        shape {
          dim {
            size: 5
          }
          dim {
            size: 2
          }
        }
      }
    }
  }
  attr {
    key: "dtype"
    value {
      type: DT_INT32
    }
  }
  attr {
    key: "value"
    value {
      tensor {
        dtype: DT_INT32
        tensor_shape {
          dim {
            size: 5
          }
          dim {
            size: 2
          }
        }
        tensor_content: "…"
      }
    }
  }
}
node {
  name: "analysis_transform/layer_0/MirrorPad"
  op: "MirrorPad"
  input: "IteratorGetNext"
  input: "analysis_transform/layer_0/MirrorPad/paddings"
  attr {
    key: "T"
    value {
      type: DT_FLOAT
    }
  }
  attr {
    key: "Tpaddings"
    value {
      type: DT_INT32
    }
  }
  attr {
    key: "_output_shapes"
    value {
      list {
        shape {
          dim {
            size: -1
          }
          dim {
            size: 68
          }
          dim {
            size: 68
          }
          dim {
            size: 68
          }
          dim {
            size: 1
          }
        }
      }
    }
  }
  attr {
    key: "mode"
    value {
      s: "REFLECT"
    }
  }
}
node {
  name: "analysis_transform/layer_0/convolution"
  op: "Conv3D"
  input: "analysis_transform/layer_0/MirrorPad"
  input: "analysis_transform/layer_0/Reshape"
  attr {
    key: "T"
    value {
      type: DT_FLOAT
    }
  }
  attr {
    key: "_output_shapes"
    value {
      list {
        shape {
          dim {
            size: -1
          }
          dim {
            size: 32
          }
          dim {
            size: 32
          }
          dim {
            size: 32
          }
          dim {
            size: 32
          }
        }
      }
    }
  }
  attr {
    key: "data_format"
    value {
      s: "NDHWC"
    }
  }
  attr {
    key: "dilations"
    value {
      list {
        i: 1
        i: 1
        i: 1
        i: 1
        i: 1
      }
    }
  }
  attr {
    key: "padding"
    value {
      s: "VALID"
    }
  }
  attr {
    key: "strides"
    value {
      list {
        i: 1
        i: 2
        i: 2
        i: 2
        i: 1
      }
    }
  }
}
node {
  name: "analysis_transform/layer_0/BiasAdd/ReadVariableOp"
  op: "ReadVariableOp"
  input: "analysis_transform/layer_0/bias"
  attr {
    key: "_output_shapes"
    value {
      list {
        shape {
          dim {
            size: 32
          }
        }
      }
    }
  }
  attr {
    key: "dtype"
    value {
      type: DT_FLOAT
    }
  }
}
node {
  name: "analysis_transform/layer_0/BiasAdd"
  op: "BiasAdd"
  input: "analysis_transform/layer_0/convolution"
  input: "analysis_transform/layer_0/BiasAdd/ReadVariableOp"
  attr {
    key: "T"
    value {
      type: DT_FLOAT
    }
  }
  attr {
    key: "_output_shapes"
    value {
      list {
        shape {
          dim {
            size: -1
          }
          dim {
            size: 32
          }
          dim {
            size: 32
          }
          dim {
            size: 32
          }
          dim {
            size: 32
          }
        }
      }
    }
  }
  attr {
    key: "data_format"
    value {
      s: "NHWC"
    }
  }
}
node {
  name: "analysis_transform/layer_0/Sigmoid"
  op: "Sigmoid"
  input: "analysis_transform/layer_0/BiasAdd"
  attr {
    key: "T"
    value {
      type: DT_FLOAT
    }
  }
  attr {
    key: "_output_shapes"
    value {
      list {
        shape {
          dim {
            size: -1
          }
          dim {
            size: 32
          }
          dim {
            size: 32
          }
          dim {
            size: 32
          }
          dim {
            size: 32
          }
        }
      }
    }
  }
}
node {
  name: "analysis_transform/layer_1/kernel_rdft/Initializer/truncated_normal/shape"
  op: "Const"
  attr {
    key: "_class"
    value {
      list {
        s: "loc:@analysis_transform/layer_1/kernel_rdft"
      }
    }
  }
  attr {
    key: "_output_shapes"
    value {
      list {
        shape {
          dim {
            size: 5
          }
        }
      }
    }
  }
  attr {
    key: "dtype"
    value {
      type: DT_INT32
    }
  }
  attr {
    key: "value"
    value {
      tensor {
        dtype: DT_INT32
        tensor_shape {
          dim {
            size: 5
          }
        }
        tensor_content: "\005\000\000\000\005\000\000\000\005\000\000\000 \000\000\000 \000\000\000"
      }
    }
  }
}
node {
  name: "analysis_transform/layer_1/kernel_rdft/Initializer/truncated_normal/mean"
  op: "Const"
  attr {
    key: "_class"
    value {
      list {
        s: "loc:@analysis_transform/layer_1/kernel_rdft"
      }
    }
  }
  attr {
    key: "_output_shapes"
    value {
      list {
        shape {
        }
      }
    }
  }
  attr {
    key: "dtype"
    value {
      type: DT_FLOAT
    }
  }
  attr {
    key: "value"
    value {
      tensor {
        dtype: DT_FLOAT
        tensor_shape {
        }
        float_val: 0.0
      }
    }
  }
}
node {
  name: "analysis_transform/layer_1/kernel_rdft/Initializer/truncated_normal/stddev"
  op: "Const"
  attr {
    key: "_class"
    value {
      list {
        s: "loc:@analysis_transform/layer_1/kernel_rdft"
      }
    }
  }
  attr {
    key: "_output_shapes"
    value {
      list {
        shape {
        }
      }
    }
  }
  attr {
    key: "dtype"
    value {
      type: DT_FLOAT
    }
  }
  attr {
    key: "value"
    value {
      tensor {
        dtype: DT_FLOAT
        tensor_shape {
        }
        float_val: 0.017975132912397385
      }
    }
  }
}
node {
  name: "analysis_transform/layer_1/kernel_rdft/Initializer/truncated_normal/TruncatedNormal"
  op: "TruncatedNormal"
  input: "analysis_transform/layer_1/kernel_rdft/Initializer/truncated_normal/shape"
  attr {
    key: "T"
    value {
      type: DT_INT32
    }
  }
  attr {
    key: "_class"
    value {
      list {
        s: "loc:@analysis_transform/layer_1/kernel_rdft"
      }
    }
  }
  attr {
    key: "_output_shapes"
    value {
      list {
        shape {
          dim {
            size: 5
          }
          dim {
            size: 5
          }
          dim {
            size: 5
          }
          dim {
            size: 32
          }
          dim {
            size: 32
          }
        }
      }
    }
  }
  attr {
    key: "dtype"
    value {
      type: DT_FLOAT
    }
  }
  attr {
    key: "seed"
    value {
      i: 0
    }
  }
  attr {
    key: "seed2"
    value {
      i: 0
    }
  }
}
node {
  name: "analysis_transform/layer_1/kernel_rdft/Initializer/truncated_normal/mul"
  op: "Mul"
  input: "analysis_transform/layer_1/kernel_rdft/Initializer/truncated_normal/TruncatedNormal"
  input: "analysis_transform/layer_1/kernel_rdft/Initializer/truncated_normal/stddev"
  attr {
    key: "T"
    value {
      type: DT_FLOAT
    }
  }
  attr {
    key: "_class"
    value {
      list {
        s: "loc:@analysis_transform/layer_1/kernel_rdft"
      }
    }
  }
  attr {
    key: "_output_shapes"
    value {
      list {
        shape {
          dim {
            size: 5
          }
          dim {
            size: 5
          }
          dim {
            size: 5
          }
          dim {
            size: 32
          }
          dim {
            size: 32
          }
        }
      }
    }
  }
}
node {
  name: "analysis_transform/layer_1/kernel_rdft/Initializer/truncated_normal"
  op: "Add"
  input: "analysis_transform/layer_1/kernel_rdft/Initializer/truncated_normal/mul"
  input: "analysis_transform/layer_1/kernel_rdft/Initializer/truncated_normal/mean"
  attr {
    key: "T"
    value {
      type: DT_FLOAT
    }
  }
  attr {
    key: "_class"
    value {
      list {
        s: "loc:@analysis_transform/layer_1/kernel_rdft"
      }
    }
  }
  attr {
    key: "_output_shapes"
    value {
      list {
        shape {
          dim {
            size: 5
          }
          dim {
            size: 5
          }
          dim {
            size: 5
          }
          dim {
            size: 32
          }
          dim {
            size: 32
          }
        }
      }
    }
  }
}
node {
  name: "analysis_transform/layer_1/kernel_rdft/Initializer/Reshape/shape"
  op: "Const"
  attr {
    key: "_class"
    value {
      list {
        s: "loc:@analysis_transform/layer_1/kernel_rdft"
      }
    }
  }
  attr {
    key: "_output_shapes"
    value {
      list {
        shape {
          dim {
            size: 2
          }
        }
      }
    }
  }
  attr {
    key: "dtype"
    value {
      type: DT_INT32
    }
  }
  attr {
    key: "value"
    value {
      tensor {
        dtype: DT_INT32
        tensor_shape {
          dim {
            size: 2
          }
        }
        tensor_content: "\377\377\377\377\000\004\000\000"
      }
    }
  }
}
node {
  name: "analysis_transform/layer_1/kernel_rdft/Initializer/Reshape"
  op: "Reshape"
  input: "analysis_transform/layer_1/kernel_rdft/Initializer/truncated_normal"
  input: "analysis_transform/layer_1/kernel_rdft/Initializer/Reshape/shape"
  attr {
    key: "T"
    value {
      type: DT_FLOAT
    }
  }
  attr {
    key: "Tshape"
    value {
      type: DT_INT32
    }
  }
  attr {
    key: "_class"
    value {
      list {
        s: "loc:@analysis_transform/layer_1/kernel_rdft"
      }
    }
  }
  attr {
    key: "_output_shapes"
    value {
      list {
        shape {
          dim {
            size: 125
          }
          dim {
            size: 1024
          }
        }
      }
    }
  }
}
node {
  name: "analysis_transform/layer_1/kernel_rdft/Initializer/MatMul"
  op: "MatMul"
  input: "analysis_transform/layer_0/kernel_rdft/Initializer/irdft_5x5x5"
  input: "analysis_transform/layer_1/kernel_rdft/Initializer/Reshape"
  attr {
    key: "T"
    value {
      type: DT_FLOAT
    }
  }
  attr {
    key: "_class"
    value {
      list {
        s: "loc:@analysis_transform/layer_1/kernel_rdft"
      }
    }
  }
  attr {
    key: "_output_shapes"
    value {
      list {
        shape {
          dim {
            size: 125
          }
          dim {
            size: 1024
          }
        }
      }
    }
  }
  attr {
    key: "transpose_a"
    value {
      b: true
    }
  }
  attr {
    key: "transpose_b"
    value {
      b: false
    }
  }
}
node {
  name: "analysis_transform/layer_1/kernel_rdft"
  op: "VarHandleOp"
  attr {
    key: "_class"
    value {
      list {
        s: "loc:@analysis_transform/layer_1/kernel_rdft"
      }
    }
  }
  attr {
    key: "_output_shapes"
    value {
      list {
        shape {
        }
      }
    }
  }
  attr {
    key: "container"
    value {
      s: ""
    }
  }
  attr {
    key: "dtype"
    value {
      type: DT_FLOAT
    }
  }
  attr {
    key: "shape"
    value {
      shape {
        dim {
          size: 125
        }
        dim {
          size: 1024
        }
      }
    }
  }
  attr {
    key: "shared_name"
    value {
      s: "analysis_transform/layer_1/kernel_rdft"
    }
  }
}
node {
  name: "analysis_transform/layer_1/kernel_rdft/IsInitialized/VarIsInitializedOp"
  op: "VarIsInitializedOp"
  input: "analysis_transform/layer_1/kernel_rdft"
  attr {
    key: "_output_shapes"
    value {
      list {
        shape {
        }
      }
    }
  }
}
node {
  name: "analysis_transform/layer_1/kernel_rdft/Assign"
  op: "AssignVariableOp"
  input: "analysis_transform/layer_1/kernel_rdft"
  input: "analysis_transform/layer_1/kernel_rdft/Initializer/MatMul"
  attr {
    key: "_class"
    value {
      list {
        s: "loc:@analysis_transform/layer_1/kernel_rdft"
      }
    }
  }
  attr {
    key: "dtype"
    value {
      type: DT_FLOAT
    }
  }
}
node {
  name: "analysis_transform/layer_1/kernel_rdft/Read/ReadVariableOp"
  op: "ReadVariableOp"
  input: "analysis_transform/layer_1/kernel_rdft"
  attr {
    key: "_class"
    value {
      list {
        s: "loc:@analysis_transform/layer_1/kernel_rdft"
      }
    }
  }
  attr {
    key: "_output_shapes"
    value {
      list {
        shape {
          dim {
            size: 125
          }
          dim {
            size: 1024
          }
        }
      }
    }
  }
  attr {
    key: "dtype"
    value {
      type: DT_FLOAT
    }
  }
}
node {
  name: "analysis_transform/layer_1/MatMul/ReadVariableOp"
  op: "ReadVariableOp"
  input: "analysis_transform/layer_1/kernel_rdft"
  attr {
    key: "_output_shapes"
    value {
      list {
        shape {
          dim {
            size: 125
          }
          dim {
            size: 1024
          }
        }
      }
    }
  }
  attr {
    key: "dtype"
    value {
      type: DT_FLOAT
    }
  }
}
node {
  name: "analysis_transform/layer_1/MatMul"
  op: "MatMul"
  input: "analysis_transform/layer_0/kernel_rdft/Initializer/irdft_5x5x5"
  input: "analysis_transform/layer_1/MatMul/ReadVariableOp"
  attr {
    key: "T"
    value {
      type: DT_FLOAT
    }
  }
  attr {
    key: "_output_shapes"
    value {
      list {
        shape {
          dim {
            size: 125
          }
          dim {
            size: 1024
          }
        }
      }
    }
  }
  attr {
    key: "transpose_a"
    value {
      b: false
    }
  }
  attr {
    key: "transpose_b"
    value {
      b: false
    }
  }
}
node {
  name: "analysis_transform/layer_1/Reshape/shape"
  op: "Const"
  attr {
    key: "_output_shapes"
    value {
      list {
        shape {
          dim {
            size: 5
          }
        }
      }
    }
  }
  attr {
    key: "dtype"
    value {
      type: DT_INT32
    }
  }
  attr {
    key: "value"
    value {
      tensor {
        dtype: DT_INT32
        tensor_shape {
          dim {
            size: 5
          }
        }
        tensor_content: "\005\000\000\000\005\000\000\000\005\000\000\000 \000\000\000 \000\000\000"
      }
    }
  }
}
node {
  name: "analysis_transform/layer_1/Reshape"
  op: "Reshape"
  input: "analysis_transform/layer_1/MatMul"
  input: "analysis_transform/layer_1/Reshape/shape"
  attr {
    key: "T"
    value {
      type: DT_FLOAT
    }
  }
  attr {
    key: "Tshape"
    value {
      type: DT_INT32
    }
  }
  attr {
    key: "_output_shapes"
    value {
      list {
        shape {
          dim {
            size: 5
          }
          dim {
            size: 5
          }
          dim {
            size: 5
          }
          dim {
            size: 32
          }
          dim {
            size: 32
          }
        }
      }
    }
  }
}
node {
  name: "analysis_transform/layer_1/bias/Initializer/zeros"
  op: "Const"
  attr {
    key: "_class"
    value {
      list {
        s: "loc:@analysis_transform/layer_1/bias"
      }
    }
  }
  attr {
    key: "_output_shapes"
    value {
      list {
        shape {
          dim {
            size: 32
          }
        }
      }
    }
  }
  attr {
    key: "dtype"
    value {
      type: DT_FLOAT
    }
  }
  attr {
    key: "value"
    value {
      tensor {
        dtype: DT_FLOAT
        tensor_shape {
          dim {
            size: 32
          }
        }
        float_val: 0.0
      }
    }
  }
}
node {
  name: "analysis_transform/layer_1/bias"
  op: "VarHandleOp"
  attr {
    key: "_class"
    value {
      list {
        s: "loc:@analysis_transform/layer_1/bias"
      }
    }
  }
  attr {
    key: "_output_shapes"
    value {
      list {
        shape {
        }
      }
    }
  }
  attr {
    key: "container"
    value {
      s: ""
    }
  }
  attr {
    key: "dtype"
    value {
      type: DT_FLOAT
    }
  }
  attr {
    key: "shape"
    value {
      shape {
        dim {
          size: 32
        }
      }
    }
  }
  attr {
    key: "shared_name"
    value {
      s: "analysis_transform/layer_1/bias"
    }
  }
}
node {
  name: "analysis_transform/layer_1/bias/IsInitialized/VarIsInitializedOp"
  op: "VarIsInitializedOp"
  input: "analysis_transform/layer_1/bias"
  attr {
    key: "_output_shapes"
    value {
      list {
        shape {
        }
      }
    }
  }
}
node {
  name: "analysis_transform/layer_1/bias/Assign"
  op: "AssignVariableOp"
  input: "analysis_transform/layer_1/bias"
  input: "analysis_transform/layer_1/bias/Initializer/zeros"
  attr {
    key: "_class"
    value {
      list {
        s: "loc:@analysis_transform/layer_1/bias"
      }
    }
  }
  attr {
    key: "dtype"
    value {
      type: DT_FLOAT
    }
  }
}
node {
  name: "analysis_transform/layer_1/bias/Read/ReadVariableOp"
  op: "ReadVariableOp"
  input: "analysis_transform/layer_1/bias"
  attr {
    key: "_class"
    value {
      list {
        s: "loc:@analysis_transform/layer_1/bias"
      }
    }
  }
  attr {
    key: "_output_shapes"
    value {
      list {
        shape {
          dim {
            size: 32
          }
        }
      }
    }
  }
  attr {
    key: "dtype"
    value {
      type: DT_FLOAT
    }
  }
}
node {
  name: "analysis_transform/layer_1/MirrorPad/paddings"
  op: "Const"
  attr {
    key: "_output_shapes"
    value {
      list {
        shape {
          dim {
            size: 5
          }
          dim {
            size: 2
          }
        }
      }
    }
  }
  attr {
    key: "dtype"
    value {
      type: DT_INT32
    }
  }
  attr {
    key: "value"
    value {
      tensor {
        dtype: DT_INT32
        tensor_shape {
          dim {
            size: 5
          }
          dim {
            size: 2
          }
        }
        tensor_content: "…"
      }
    }
  }
}
node {
  name: "analysis_transform/layer_1/MirrorPad"
  op: "MirrorPad"
  input: "analysis_transform/layer_0/Sigmoid"
  input: "analysis_transform/layer_1/MirrorPad/paddings"
  attr {
    key: "T"
    value {
      type: DT_FLOAT
    }
  }
  attr {
    key: "Tpaddings"
    value {
      type: DT_INT32
    }
  }
  attr {
    key: "_output_shapes"
    value {
      list {
        shape {
          dim {
            size: -1
          }
          dim {
            size: 36
          }
          dim {
            size: 36
          }
          dim {
            size: 36
          }
          dim {
            size: 32
          }
        }
      }
    }
  }
  attr {
    key: "mode"
    value {
      s: "REFLECT"
    }
  }
}
node {
  name: "analysis_transform/layer_1/convolution"
  op: "Conv3D"
  input: "analysis_transform/layer_1/MirrorPad"
  input: "analysis_transform/layer_1/Reshape"
  attr {
    key: "T"
    value {
      type: DT_FLOAT
    }
  }
  attr {
    key: "_output_shapes"
    value {
      list {
        shape {
          dim {
            size: -1
          }
          dim {
            size: 16
          }
          dim {
            size: 16
          }
          dim {
            size: 16
          }
          dim {
            size: 32
          }
        }
      }
    }
  }
  attr {
    key: "data_format"
    value {
      s: "NDHWC"
    }
  }
  attr {
    key: "dilations"
    value {
      list {
        i: 1
        i: 1
        i: 1
        i: 1
        i: 1
      }
    }
  }
  attr {
    key: "padding"
    value {
      s: "VALID"
    }
  }
  attr {
    key: "strides"
    value {
      list {
        i: 1
        i: 2
        i: 2
        i: 2
        i: 1
      }
    }
  }
}
node {
  name: "analysis_transform/layer_1/BiasAdd/ReadVariableOp"
  op: "ReadVariableOp"
  input: "analysis_transform/layer_1/bias"
  attr {
    key: "_output_shapes"
    value {
      list {
        shape {
          dim {
            size: 32
          }
        }
      }
    }
  }
  attr {
    key: "dtype"
    value {
      type: DT_FLOAT
    }
  }
}
node {
  name: "analysis_transform/layer_1/BiasAdd"
  op: "BiasAdd"
  input: "analysis_transform/layer_1/convolution"
  input: "analysis_transform/layer_1/BiasAdd/ReadVariableOp"
  attr {
    key: "T"
    value {
      type: DT_FLOAT
    }
  }
  attr {
    key: "_output_shapes"
    value {
      list {
        shape {
          dim {
            size: -1
          }
          dim {
            size: 16
          }
          dim {
            size: 16
          }
          dim {
            size: 16
          }
          dim {
            size: 32
          }
        }
      }
    }
  }
  attr {
    key: "data_format"
    value {
      s: "NHWC"
    }
  }
}
node {
  name: "analysis_transform/layer_1/Sigmoid"
  op: "Sigmoid"
  input: "analysis_transform/layer_1/BiasAdd"
  attr {
    key: "T"
    value {
      type: DT_FLOAT
    }
  }
  attr {
    key: "_output_shapes"
    value {
      list {
        shape {
          dim {
            size: -1
          }
          dim {
            size: 16
          }
          dim {
            size: 16
          }
          dim {
            size: 16
          }
          dim {
            size: 32
          }
        }
      }
    }
  }
}
node {
  name: "analysis_transform/layer_2/kernel_rdft/Initializer/truncated_normal/shape"
  op: "Const"
  attr {
    key: "_class"
    value {
      list {
        s: "loc:@analysis_transform/layer_2/kernel_rdft"
      }
    }
  }
  attr {
    key: "_output_shapes"
    value {
      list {
        shape {
          dim {
            size: 5
          }
        }
      }
    }
  }
  attr {
    key: "dtype"
    value {
      type: DT_INT32
    }
  }
  attr {
    key: "value"
    value {
      tensor {
        dtype: DT_INT32
        tensor_shape {
          dim {
            size: 5
          }
        }
        tensor_content: "\005\000\000\000\005\000\000\000\005\000\000\000 \000\000\000 \000\000\000"
      }
    }
  }
}
node {
  name: "analysis_transform/layer_2/kernel_rdft/Initializer/truncated_normal/mean"
  op: "Const"
  attr {
    key: "_class"
    value {
      list {
        s: "loc:@analysis_transform/layer_2/kernel_rdft"
      }
    }
  }
  attr {
    key: "_output_shapes"
    value {
      list {
        shape {
        }
      }
    }
  }
  attr {
    key: "dtype"
    value {
      type: DT_FLOAT
    }
  }
  attr {
    key: "value"
    value {
      tensor {
        dtype: DT_FLOAT
        tensor_shape {
        }
        float_val: 0.0
      }
    }
  }
}
node {
  name: "analysis_transform/layer_2/kernel_rdft/Initializer/truncated_normal/stddev"
  op: "Const"
  attr {
    key: "_class"
    value {
      list {
        s: "loc:@analysis_transform/layer_2/kernel_rdft"
      }
    }
  }
  attr {
    key: "_output_shapes"
    value {
      list {
        shape {
        }
      }
    }
  }
  attr {
    key: "dtype"
    value {
      type: DT_FLOAT
    }
  }
  attr {
    key: "value"
    value {
      tensor {
        dtype: DT_FLOAT
        tensor_shape {
        }
        float_val: 0.017975132912397385
      }
    }
  }
}
node {
  name: "analysis_transform/layer_2/kernel_rdft/Initializer/truncated_normal/TruncatedNormal"
  op: "TruncatedNormal"
  input: "analysis_transform/layer_2/kernel_rdft/Initializer/truncated_normal/shape"
  attr {
    key: "T"
    value {
      type: DT_INT32
    }
  }
  attr {
    key: "_class"
    value {
      list {
        s: "loc:@analysis_transform/layer_2/kernel_rdft"
      }
    }
  }
  attr {
    key: "_output_shapes"
    value {
      list {
        shape {
          dim {
            size: 5
          }
          dim {
            size: 5
          }
          dim {
            size: 5
          }
          dim {
            size: 32
          }
          dim {
            size: 32
          }
        }
      }
    }
  }
  attr {
    key: "dtype"
    value {
      type: DT_FLOAT
    }
  }
  attr {
    key: "seed"
    value {
      i: 0
    }
  }
  attr {
    key: "seed2"
    value {
      i: 0
    }
  }
}
node {
  name: "analysis_transform/layer_2/kernel_rdft/Initializer/truncated_normal/mul"
  op: "Mul"
  input: "analysis_transform/layer_2/kernel_rdft/Initializer/truncated_normal/TruncatedNormal"
  input: "analysis_transform/layer_2/kernel_rdft/Initializer/truncated_normal/stddev"
  attr {
    key: "T"
    value {
      type: DT_FLOAT
    }
  }
  attr {
    key: "_class"
    value {
      list {
        s: "loc:@analysis_transform/layer_2/kernel_rdft"
      }
    }
  }
  attr {
    key: "_output_shapes"
    value {
      list {
        shape {
          dim {
            size: 5
          }
          dim {
            size: 5
          }
          dim {
            size: 5
          }
          dim {
            size: 32
          }
          dim {
            size: 32
          }
        }
      }
    }
  }
}
node {
  name: "analysis_transform/layer_2/kernel_rdft/Initializer/truncated_normal"
  op: "Add"
  input: "analysis_transform/layer_2/kernel_rdft/Initializer/truncated_normal/mul"
  input: "analysis_transform/layer_2/kernel_rdft/Initializer/truncated_normal/mean"
  attr {
    key: "T"
    value {
      type: DT_FLOAT
    }
  }
  attr {
    key: "_class"
    value {
      list {
        s: "loc:@analysis_transform/layer_2/kernel_rdft"
      }
    }
  }
  attr {
    key: "_output_shapes"
    value {
      list {
        shape {
          dim {
            size: 5
          }
          dim {
            size: 5
          }
          dim {
            size: 5
          }
          dim {
            size: 32
          }
          dim {
            size: 32
          }
        }
      }
    }
  }
}
node {
  name: "analysis_transform/layer_2/kernel_rdft/Initializer/Reshape/shape"
  op: "Const"
  attr {
    key: "_class"
    value {
      list {
        s: "loc:@analysis_transform/layer_2/kernel_rdft"
      }
    }
  }
  attr {
    key: "_output_shapes"
    value {
      list {
        shape {
          dim {
            size: 2
          }
        }
      }
    }
  }
  attr {
    key: "dtype"
    value {
      type: DT_INT32
    }
  }
  attr {
    key: "value"
    value {
      tensor {
        dtype: DT_INT32
        tensor_shape {
          dim {
            size: 2
          }
        }
        tensor_content: "\377\377\377\377\000\004\000\000"
      }
    }
  }
}
node {
  name: "analysis_transform/layer_2/kernel_rdft/Initializer/Reshape"
  op: "Reshape"
  input: "analysis_transform/layer_2/kernel_rdft/Initializer/truncated_normal"
  input: "analysis_transform/layer_2/kernel_rdft/Initializer/Reshape/shape"
  attr {
    key: "T"
    value {
      type: DT_FLOAT
    }
  }
  attr {
    key: "Tshape"
    value {
      type: DT_INT32
    }
  }
  attr {
    key: "_class"
    value {
      list {
        s: "loc:@analysis_transform/layer_2/kernel_rdft"
      }
    }
  }
  attr {
    key: "_output_shapes"
    value {
      list {
        shape {
          dim {
            size: 125
          }
          dim {
            size: 1024
          }
        }
      }
    }
  }
}
node {
  name: "analysis_transform/layer_2/kernel_rdft/Initializer/MatMul"
  op: "MatMul"
  input: "analysis_transform/layer_0/kernel_rdft/Initializer/irdft_5x5x5"
  input: "analysis_transform/layer_2/kernel_rdft/Initializer/Reshape"
  attr {
    key: "T"
    value {
      type: DT_FLOAT
    }
  }
  attr {
    key: "_class"
    value {
      list {
        s: "loc:@analysis_transform/layer_2/kernel_rdft"
      }
    }
  }
  attr {
    key: "_output_shapes"
    value {
      list {
        shape {
          dim {
            size: 125
          }
          dim {
            size: 1024
          }
        }
      }
    }
  }
  attr {
    key: "transpose_a"
    value {
      b: true
    }
  }
  attr {
    key: "transpose_b"
    value {
      b: false
    }
  }
}
node {
  name: "analysis_transform/layer_2/kernel_rdft"
  op: "VarHandleOp"
  attr {
    key: "_class"
    value {
      list {
        s: "loc:@analysis_transform/layer_2/kernel_rdft"
      }
    }
  }
  attr {
    key: "_output_shapes"
    value {
      list {
        shape {
        }
      }
    }
  }
  attr {
    key: "container"
    value {
      s: ""
    }
  }
  attr {
    key: "dtype"
    value {
      type: DT_FLOAT
    }
  }
  attr {
    key: "shape"
    value {
      shape {
        dim {
          size: 125
        }
        dim {
          size: 1024
        }
      }
    }
  }
  attr {
    key: "shared_name"
    value {
      s: "analysis_transform/layer_2/kernel_rdft"
    }
  }
}
node {
  name: "analysis_transform/layer_2/kernel_rdft/IsInitialized/VarIsInitializedOp"
  op: "VarIsInitializedOp"
  input: "analysis_transform/layer_2/kernel_rdft"
  attr {
    key: "_output_shapes"
    value {
      list {
        shape {
        }
      }
    }
  }
}
node {
  name: "analysis_transform/layer_2/kernel_rdft/Assign"
  op: "AssignVariableOp"
  input: "analysis_transform/layer_2/kernel_rdft"
  input: "analysis_transform/layer_2/kernel_rdft/Initializer/MatMul"
  attr {
    key: "_class"
    value {
      list {
        s: "loc:@analysis_transform/layer_2/kernel_rdft"
      }
    }
  }
  attr {
    key: "dtype"
    value {
      type: DT_FLOAT
    }
  }
}
node {
  name: "analysis_transform/layer_2/kernel_rdft/Read/ReadVariableOp"
  op: "ReadVariableOp"
  input: "analysis_transform/layer_2/kernel_rdft"
  attr {
    key: "_class"
    value {
      list {
        s: "loc:@analysis_transform/layer_2/kernel_rdft"
      }
    }
  }
  attr {
    key: "_output_shapes"
    value {
      list {
        shape {
          dim {
            size: 125
          }
          dim {
            size: 1024
          }
        }
      }
    }
  }
  attr {
    key: "dtype"
    value {
      type: DT_FLOAT
    }
  }
}
node {
  name: "analysis_transform/layer_2/MatMul/ReadVariableOp"
  op: "ReadVariableOp"
  input: "analysis_transform/layer_2/kernel_rdft"
  attr {
    key: "_output_shapes"
    value {
      list {
        shape {
          dim {
            size: 125
          }
          dim {
            size: 1024
          }
        }
      }
    }
  }
  attr {
    key: "dtype"
    value {
      type: DT_FLOAT
    }
  }
}
node {
  name: "analysis_transform/layer_2/MatMul"
  op: "MatMul"
  input: "analysis_transform/layer_0/kernel_rdft/Initializer/irdft_5x5x5"
  input: "analysis_transform/layer_2/MatMul/ReadVariableOp"
  attr {
    key: "T"
    value {
      type: DT_FLOAT
    }
  }
  attr {
    key: "_output_shapes"
    value {
      list {
        shape {
          dim {
            size: 125
          }
          dim {
            size: 1024
          }
        }
      }
    }
  }
  attr {
    key: "transpose_a"
    value {
      b: false
    }
  }
  attr {
    key: "transpose_b"
    value {
      b: false
    }
  }
}
node {
  name: "analysis_transform/layer_2/Reshape/shape"
  op: "Const"
  attr {
    key: "_output_shapes"
    value {
      list {
        shape {
          dim {
            size: 5
          }
        }
      }
    }
  }
  attr {
    key: "dtype"
    value {
      type: DT_INT32
    }
  }
  attr {
    key: "value"
    value {
      tensor {
        dtype: DT_INT32
        tensor_shape {
          dim {
            size: 5
          }
        }
        tensor_content: "\005\000\000\000\005\000\000\000\005\000\000\000 \000\000\000 \000\000\000"
      }
    }
  }
}
node {
  name: "analysis_transform/layer_2/Reshape"
  op: "Reshape"
  input: "analysis_transform/layer_2/MatMul"
  input: "analysis_transform/layer_2/Reshape/shape"
  attr {
    key: "T"
    value {
      type: DT_FLOAT
    }
  }
  attr {
    key: "Tshape"
    value {
      type: DT_INT32
    }
  }
  attr {
    key: "_output_shapes"
    value {
      list {
        shape {
          dim {
            size: 5
          }
          dim {
            size: 5
          }
          dim {
            size: 5
          }
          dim {
            size: 32
          }
          dim {
            size: 32
          }
        }
      }
    }
  }
}
node {
  name: "analysis_transform/layer_2/MirrorPad/paddings"
  op: "Const"
  attr {
    key: "_output_shapes"
    value {
      list {
        shape {
          dim {
            size: 5
          }
          dim {
            size: 2
          }
        }
      }
    }
  }
  attr {
    key: "dtype"
    value {
      type: DT_INT32
    }
  }
  attr {
    key: "value"
    value {
      tensor {
        dtype: DT_INT32
        tensor_shape {
          dim {
            size: 5
          }
          dim {
            size: 2
          }
        }
        tensor_content: "…"
      }
    }
  }
}
node {
  name: "analysis_transform/layer_2/MirrorPad"
  op: "MirrorPad"
  input: "analysis_transform/layer_1/Sigmoid"
  input: "analysis_transform/layer_2/MirrorPad/paddings"
  attr {
    key: "T"
    value {
      type: DT_FLOAT
    }
  }
  attr {
    key: "Tpaddings"
    value {
      type: DT_INT32
    }
  }
  attr {
    key: "_output_shapes"
    value {
      list {
        shape {
          dim {
            size: -1
          }
          dim {
            size: 20
          }
          dim {
            size: 20
          }
          dim {
            size: 20
          }
          dim {
            size: 32
          }
        }
      }
    }
  }
  attr {
    key: "mode"
    value {
      s: "REFLECT"
    }
  }
}
node {
  name: "analysis_transform/layer_2/convolution"
  op: "Conv3D"
  input: "analysis_transform/layer_2/MirrorPad"
  input: "analysis_transform/layer_2/Reshape"
  attr {
    key: "T"
    value {
      type: DT_FLOAT
    }
  }
  attr {
    key: "_output_shapes"
    value {
      list {
        shape {
          dim {
            size: -1
          }
          dim {
            size: 8
          }
          dim {
            size: 8
          }
          dim {
            size: 8
          }
          dim {
            size: 32
          }
        }
      }
    }
  }
  attr {
    key: "data_format"
    value {
      s: "NDHWC"
    }
  }
  attr {
    key: "dilations"
    value {
      list {
        i: 1
        i: 1
        i: 1
        i: 1
        i: 1
      }
    }
  }
  attr {
    key: "padding"
    value {
      s: "VALID"
    }
  }
  attr {
    key: "strides"
    value {
      list {
        i: 1
        i: 2
        i: 2
        i: 2
        i: 1
      }
    }
  }
}
node {
  name: "Abs"
  op: "Abs"
  input: "analysis_transform/layer_2/convolution"
  attr {
    key: "T"
    value {
      type: DT_FLOAT
    }
  }
  attr {
    key: "_output_shapes"
    value {
      list {
        shape {
          dim {
            size: -1
          }
          dim {
            size: 8
          }
          dim {
            size: 8
          }
          dim {
            size: 8
          }
          dim {
            size: 32
          }
        }
      }
    }
  }
}
node {
  name: "hyper_analysis_transform/layer_0/kernel_rdft/Initializer/truncated_normal/shape"
  op: "Const"
  attr {
    key: "_class"
    value {
      list {
        s: "loc:@hyper_analysis_transform/layer_0/kernel_rdft"
      }
    }
  }
  attr {
    key: "_output_shapes"
    value {
      list {
        shape {
          dim {
            size: 5
          }
        }
      }
    }
  }
  attr {
    key: "dtype"
    value {
      type: DT_INT32
    }
  }
  attr {
    key: "value"
    value {
      tensor {
        dtype: DT_INT32
        tensor_shape {
          dim {
            size: 5
          }
        }
        tensor_content: "\003\000\000\000\003\000\000\000\003\000\000\000 \000\000\000 \000\000\000"
      }
    }
  }
}
node {
  name: "hyper_analysis_transform/layer_0/kernel_rdft/Initializer/truncated_normal/mean"
  op: "Const"
  attr {
    key: "_class"
    value {
      list {
        s: "loc:@hyper_analysis_transform/layer_0/kernel_rdft"
      }
    }
  }
  attr {
    key: "_output_shapes"
    value {
      list {
        shape {
        }
      }
    }
  }
  attr {
    key: "dtype"
    value {
      type: DT_FLOAT
    }
  }
  attr {
    key: "value"
    value {
      tensor {
        dtype: DT_FLOAT
        tensor_shape {
        }
        float_val: 0.0
      }
    }
  }
}
node {
  name: "hyper_analysis_transform/layer_0/kernel_rdft/Initializer/truncated_normal/stddev"
  op: "Const"
  attr {
    key: "_class"
    value {
      list {
        s: "loc:@hyper_analysis_transform/layer_0/kernel_rdft"
      }
    }
  }
  attr {
    key: "_output_shapes"
    value {
      list {
        shape {
        }
      }
    }
  }
  attr {
    key: "dtype"
    value {
      type: DT_FLOAT
    }
  }
  attr {
    key: "value"
    value {
      tensor {
        dtype: DT_FLOAT
        tensor_shape {
        }
        float_val: 0.03867632895708084
      }
    }
  }
}
node {
  name: "hyper_analysis_transform/layer_0/kernel_rdft/Initializer/truncated_normal/TruncatedNormal"
  op: "TruncatedNormal"
  input: "hyper_analysis_transform/layer_0/kernel_rdft/Initializer/truncated_normal/shape"
  attr {
    key: "T"
    value {
      type: DT_INT32
    }
  }
  attr {
    key: "_class"
    value {
      list {
        s: "loc:@hyper_analysis_transform/layer_0/kernel_rdft"
      }
    }
  }
  attr {
    key: "_output_shapes"
    value {
      list {
        shape {
          dim {
            size: 3
          }
          dim {
            size: 3
          }
          dim {
            size: 3
          }
          dim {
            size: 32
          }
          dim {
            size: 32
          }
        }
      }
    }
  }
  attr {
    key: "dtype"
    value {
      type: DT_FLOAT
    }
  }
  attr {
    key: "seed"
    value {
      i: 0
    }
  }
  attr {
    key: "seed2"
    value {
      i: 0
    }
  }
}
node {
  name: "hyper_analysis_transform/layer_0/kernel_rdft/Initializer/truncated_normal/mul"
  op: "Mul"
  input: "hyper_analysis_transform/layer_0/kernel_rdft/Initializer/truncated_normal/TruncatedNormal"
  input: "hyper_analysis_transform/layer_0/kernel_rdft/Initializer/truncated_normal/stddev"
  attr {
    key: "T"
    value {
      type: DT_FLOAT
    }
  }
  attr {
    key: "_class"
    value {
      list {
        s: "loc:@hyper_analysis_transform/layer_0/kernel_rdft"
      }
    }
  }
  attr {
    key: "_output_shapes"
    value {
      list {
        shape {
          dim {
            size: 3
          }
          dim {
            size: 3
          }
          dim {
            size: 3
          }
          dim {
            size: 32
          }
          dim {
            size: 32
          }
        }
      }
    }
  }
}
node {
  name: "hyper_analysis_transform/layer_0/kernel_rdft/Initializer/truncated_normal"
  op: "Add"
  input: "hyper_analysis_transform/layer_0/kernel_rdft/Initializer/truncated_normal/mul"
  input: "hyper_analysis_transform/layer_0/kernel_rdft/Initializer/truncated_normal/mean"
  attr {
    key: "T"
    value {
      type: DT_FLOAT
    }
  }
  attr {
    key: "_class"
    value {
      list {
        s: "loc:@hyper_analysis_transform/layer_0/kernel_rdft"
      }
    }
  }
  attr {
    key: "_output_shapes"
    value {
      list {
        shape {
          dim {
            size: 3
          }
          dim {
            size: 3
          }
          dim {
            size: 3
          }
          dim {
            size: 32
          }
          dim {
            size: 32
          }
        }
      }
    }
  }
}
node {
  name: "hyper_analysis_transform/layer_0/kernel_rdft/Initializer/Reshape/shape"
  op: "Const"
  attr {
    key: "_class"
    value {
      list {
        s: "loc:@hyper_analysis_transform/layer_0/kernel_rdft"
      }
    }
  }
  attr {
    key: "_output_shapes"
    value {
      list {
        shape {
          dim {
            size: 2
          }
        }
      }
    }
  }
  attr {
    key: "dtype"
    value {
      type: DT_INT32
    }
  }
  attr {
    key: "value"
    value {
      tensor {
        dtype: DT_INT32
        tensor_shape {
          dim {
            size: 2
          }
        }
        tensor_content: "\377\377\377\377\000\004\000\000"
      }
    }
  }
}
node {
  name: "hyper_analysis_transform/layer_0/kernel_rdft/Initializer/Reshape"
  op: "Reshape"
  input: "hyper_analysis_transform/layer_0/kernel_rdft/Initializer/truncated_normal"
  input: "hyper_analysis_transform/layer_0/kernel_rdft/Initializer/Reshape/shape"
  attr {
    key: "T"
    value {
      type: DT_FLOAT
    }
  }
  attr {
    key: "Tshape"
    value {
      type: DT_INT32
    }
  }
  attr {
    key: "_class"
    value {
      list {
        s: "loc:@hyper_analysis_transform/layer_0/kernel_rdft"
      }
    }
  }
  attr {
    key: "_output_shapes"
    value {
      list {
        shape {
          dim {
            size: 27
          }
          dim {
            size: 1024
          }
        }
      }
    }
  }
}
node {
  name: "hyper_analysis_transform/layer_0/kernel_rdft/Initializer/irdft_3x3x3"
  op: "Const"
  attr {
    key: "_class"
    value {
      list {
        s: "loc:@hyper_analysis_transform/layer_0/kernel_rdft"
      }
    }
  }
  attr {
    key: "_output_shapes"
    value {
      list {
        shape {
          dim {
            size: 27
          }
          dim {
            size: 27
          }
        }
      }
    }
  }
  attr {
    key: "dtype"
    value {
      type: DT_FLOAT
    }
  }
  attr {
    key: "value"
    value {
      tensor {
        dtype: DT_FLOAT
        tensor_shape {
          dim {
            size: 27
          }
          dim {
            size: 27
          }
        }
        tensor_content: "…"
      }
    }
  }
}
node {
  name: "hyper_analysis_transform/layer_0/kernel_rdft/Initializer/MatMul"
  op: "MatMul"
  input: "hyper_analysis_transform/layer_0/kernel_rdft/Initializer/irdft_3x3x3"
  input: "hyper_analysis_transform/layer_0/kernel_rdft/Initializer/Reshape"
  attr {
    key: "T"
    value {
      type: DT_FLOAT
    }
  }
  attr {
    key: "_class"
    value {
      list {
        s: "loc:@hyper_analysis_transform/layer_0/kernel_rdft"
      }
    }
  }
  attr {
    key: "_output_shapes"
    value {
      list {
        shape {
          dim {
            size: 27
          }
          dim {
            size: 1024
          }
        }
      }
    }
  }
  attr {
    key: "transpose_a"
    value {
      b: true
    }
  }
  attr {
    key: "transpose_b"
    value {
      b: false
    }
  }
}
node {
  name: "hyper_analysis_transform/layer_0/kernel_rdft"
  op: "VarHandleOp"
  attr {
    key: "_class"
    value {
      list {
        s: "loc:@hyper_analysis_transform/layer_0/kernel_rdft"
      }
    }
  }
  attr {
    key: "_output_shapes"
    value {
      list {
        shape {
        }
      }
    }
  }
  attr {
    key: "container"
    value {
      s: ""
    }
  }
  attr {
    key: "dtype"
    value {
      type: DT_FLOAT
    }
  }
  attr {
    key: "shape"
    value {
      shape {
        dim {
          size: 27
        }
        dim {
          size: 1024
        }
      }
    }
  }
  attr {
    key: "shared_name"
    value {
      s: "hyper_analysis_transform/layer_0/kernel_rdft"
    }
  }
}
node {
  name: "hyper_analysis_transform/layer_0/kernel_rdft/IsInitialized/VarIsInitializedOp"
  op: "VarIsInitializedOp"
  input: "hyper_analysis_transform/layer_0/kernel_rdft"
  attr {
    key: "_output_shapes"
    value {
      list {
        shape {
        }
      }
    }
  }
}
node {
  name: "hyper_analysis_transform/layer_0/kernel_rdft/Assign"
  op: "AssignVariableOp"
  input: "hyper_analysis_transform/layer_0/kernel_rdft"
  input: "hyper_analysis_transform/layer_0/kernel_rdft/Initializer/MatMul"
  attr {
    key: "_class"
    value {
      list {
        s: "loc:@hyper_analysis_transform/layer_0/kernel_rdft"
      }
    }
  }
  attr {
    key: "dtype"
    value {
      type: DT_FLOAT
    }
  }
}
node {
  name: "hyper_analysis_transform/layer_0/kernel_rdft/Read/ReadVariableOp"
  op: "ReadVariableOp"
  input: "hyper_analysis_transform/layer_0/kernel_rdft"
  attr {
    key: "_class"
    value {
      list {
        s: "loc:@hyper_analysis_transform/layer_0/kernel_rdft"
      }
    }
  }
  attr {
    key: "_output_shapes"
    value {
      list {
        shape {
          dim {
            size: 27
          }
          dim {
            size: 1024
          }
        }
      }
    }
  }
  attr {
    key: "dtype"
    value {
      type: DT_FLOAT
    }
  }
}
node {
  name: "hyper_analysis_transform/layer_0/MatMul/ReadVariableOp"
  op: "ReadVariableOp"
  input: "hyper_analysis_transform/layer_0/kernel_rdft"
  attr {
    key: "_output_shapes"
    value {
      list {
        shape {
          dim {
            size: 27
          }
          dim {
            size: 1024
          }
        }
      }
    }
  }
  attr {
    key: "dtype"
    value {
      type: DT_FLOAT
    }
  }
}
node {
  name: "hyper_analysis_transform/layer_0/MatMul"
  op: "MatMul"
  input: "hyper_analysis_transform/layer_0/kernel_rdft/Initializer/irdft_3x3x3"
  input: "hyper_analysis_transform/layer_0/MatMul/ReadVariableOp"
  attr {
    key: "T"
    value {
      type: DT_FLOAT
    }
  }
  attr {
    key: "_output_shapes"
    value {
      list {
        shape {
          dim {
            size: 27
          }
          dim {
            size: 1024
          }
        }
      }
    }
  }
  attr {
    key: "transpose_a"
    value {
      b: false
    }
  }
  attr {
    key: "transpose_b"
    value {
      b: false
    }
  }
}
node {
  name: "hyper_analysis_transform/layer_0/Reshape/shape"
  op: "Const"
  attr {
    key: "_output_shapes"
    value {
      list {
        shape {
          dim {
            size: 5
          }
        }
      }
    }
  }
  attr {
    key: "dtype"
    value {
      type: DT_INT32
    }
  }
  attr {
    key: "value"
    value {
      tensor {
        dtype: DT_INT32
        tensor_shape {
          dim {
            size: 5
          }
        }
        tensor_content: "\003\000\000\000\003\000\000\000\003\000\000\000 \000\000\000 \000\000\000"
      }
    }
  }
}
node {
  name: "hyper_analysis_transform/layer_0/Reshape"
  op: "Reshape"
  input: "hyper_analysis_transform/layer_0/MatMul"
  input: "hyper_analysis_transform/layer_0/Reshape/shape"
  attr {
    key: "T"
    value {
      type: DT_FLOAT
    }
  }
  attr {
    key: "Tshape"
    value {
      type: DT_INT32
    }
  }
  attr {
    key: "_output_shapes"
    value {
      list {
        shape {
          dim {
            size: 3
          }
          dim {
            size: 3
          }
          dim {
            size: 3
          }
          dim {
            size: 32
          }
          dim {
            size: 32
          }
        }
      }
    }
  }
}
node {
  name: "hyper_analysis_transform/layer_0/bias/Initializer/zeros"
  op: "Const"
  attr {
    key: "_class"
    value {
      list {
        s: "loc:@hyper_analysis_transform/layer_0/bias"
      }
    }
  }
  attr {
    key: "_output_shapes"
    value {
      list {
        shape {
          dim {
            size: 32
          }
        }
      }
    }
  }
  attr {
    key: "dtype"
    value {
      type: DT_FLOAT
    }
  }
  attr {
    key: "value"
    value {
      tensor {
        dtype: DT_FLOAT
        tensor_shape {
          dim {
            size: 32
          }
        }
        float_val: 0.0
      }
    }
  }
}
node {
  name: "hyper_analysis_transform/layer_0/bias"
  op: "VarHandleOp"
  attr {
    key: "_class"
    value {
      list {
        s: "loc:@hyper_analysis_transform/layer_0/bias"
      }
    }
  }
  attr {
    key: "_output_shapes"
    value {
      list {
        shape {
        }
      }
    }
  }
  attr {
    key: "container"
    value {
      s: ""
    }
  }
  attr {
    key: "dtype"
    value {
      type: DT_FLOAT
    }
  }
  attr {
    key: "shape"
    value {
      shape {
        dim {
          size: 32
        }
      }
    }
  }
  attr {
    key: "shared_name"
    value {
      s: "hyper_analysis_transform/layer_0/bias"
    }
  }
}
node {
  name: "hyper_analysis_transform/layer_0/bias/IsInitialized/VarIsInitializedOp"
  op: "VarIsInitializedOp"
  input: "hyper_analysis_transform/layer_0/bias"
  attr {
    key: "_output_shapes"
    value {
      list {
        shape {
        }
      }
    }
  }
}
node {
  name: "hyper_analysis_transform/layer_0/bias/Assign"
  op: "AssignVariableOp"
  input: "hyper_analysis_transform/layer_0/bias"
  input: "hyper_analysis_transform/layer_0/bias/Initializer/zeros"
  attr {
    key: "_class"
    value {
      list {
        s: "loc:@hyper_analysis_transform/layer_0/bias"
      }
    }
  }
  attr {
    key: "dtype"
    value {
      type: DT_FLOAT
    }
  }
}
node {
  name: "hyper_analysis_transform/layer_0/bias/Read/ReadVariableOp"
  op: "ReadVariableOp"
  input: "hyper_analysis_transform/layer_0/bias"
  attr {
    key: "_class"
    value {
      list {
        s: "loc:@hyper_analysis_transform/layer_0/bias"
      }
    }
  }
  attr {
    key: "_output_shapes"
    value {
      list {
        shape {
          dim {
            size: 32
          }
        }
      }
    }
  }
  attr {
    key: "dtype"
    value {
      type: DT_FLOAT
    }
  }
}
node {
  name: "hyper_analysis_transform/layer_0/Pad/paddings"
  op: "Const"
  attr {
    key: "_output_shapes"
    value {
      list {
        shape {
          dim {
            size: 5
          }
          dim {
            size: 2
          }
        }
      }
    }
  }
  attr {
    key: "dtype"
    value {
      type: DT_INT32
    }
  }
  attr {
    key: "value"
    value {
      tensor {
        dtype: DT_INT32
        tensor_shape {
          dim {
            size: 5
          }
          dim {
            size: 2
          }
        }
        tensor_content: "…"
      }
    }
  }
}
node {
  name: "hyper_analysis_transform/layer_0/Pad"
  op: "Pad"
  input: "Abs"
  input: "hyper_analysis_transform/layer_0/Pad/paddings"
  attr {
    key: "T"
    value {
      type: DT_FLOAT
    }
  }
  attr {
    key: "Tpaddings"
    value {
      type: DT_INT32
    }
  }
  attr {
    key: "_output_shapes"
    value {
      list {
        shape {
          dim {
            size: -1
          }
          dim {
            size: 10
          }
          dim {
            size: 10
          }
          dim {
            size: 10
          }
          dim {
            size: 32
          }
        }
      }
    }
  }
}
node {
  name: "hyper_analysis_transform/layer_0/convolution"
  op: "Conv3D"
  input: "hyper_analysis_transform/layer_0/Pad"
  input: "hyper_analysis_transform/layer_0/Reshape"
  attr {
    key: "T"
    value {
      type: DT_FLOAT
    }
  }
  attr {
    key: "_output_shapes"
    value {
      list {
        shape {
          dim {
            size: -1
          }
          dim {
            size: 8
          }
          dim {
            size: 8
          }
          dim {
            size: 8
          }
          dim {
            size: 32
          }
        }
      }
    }
  }
  attr {
    key: "data_format"
    value {
      s: "NDHWC"
    }
  }
  attr {
    key: "dilations"
    value {
      list {
        i: 1
        i: 1
        i: 1
        i: 1
        i: 1
      }
    }
  }
  attr {
    key: "padding"
    value {
      s: "VALID"
    }
  }
  attr {
    key: "strides"
    value {
      list {
        i: 1
        i: 1
        i: 1
        i: 1
        i: 1
      }
    }
  }
}
node {
  name: "hyper_analysis_transform/layer_0/BiasAdd/ReadVariableOp"
  op: "ReadVariableOp"
  input: "hyper_analysis_transform/layer_0/bias"
  attr {
    key: "_output_shapes"
    value {
      list {
        shape {
          dim {
            size: 32
          }
        }
      }
    }
  }
  attr {
    key: "dtype"
    value {
      type: DT_FLOAT
    }
  }
}
node {
  name: "hyper_analysis_transform/layer_0/BiasAdd"
  op: "BiasAdd"
  input: "hyper_analysis_transform/layer_0/convolution"
  input: "hyper_analysis_transform/layer_0/BiasAdd/ReadVariableOp"
  attr {
    key: "T"
    value {
      type: DT_FLOAT
    }
  }
  attr {
    key: "_output_shapes"
    value {
      list {
        shape {
          dim {
            size: -1
          }
          dim {
            size: 8
          }
          dim {
            size: 8
          }
          dim {
            size: 8
          }
          dim {
            size: 32
          }
        }
      }
    }
  }
  attr {
    key: "data_format"
    value {
      s: "NHWC"
    }
  }
}
node {
  name: "hyper_analysis_transform/layer_0/Relu"
  op: "Relu"
  input: "hyper_analysis_transform/layer_0/BiasAdd"
  attr {
    key: "T"
    value {
      type: DT_FLOAT
    }
  }
  attr {
    key: "_output_shapes"
    value {
      list {
        shape {
          dim {
            size: -1
          }
          dim {
            size: 8
          }
          dim {
            size: 8
          }
          dim {
            size: 8
          }
          dim {
            size: 32
          }
        }
      }
    }
  }
}
node {
  name: "hyper_analysis_transform/layer_1/kernel_rdft/Initializer/truncated_normal/shape"
  op: "Const"
  attr {
    key: "_class"
    value {
      list {
        s: "loc:@hyper_analysis_transform/layer_1/kernel_rdft"
      }
    }
  }
  attr {
    key: "_output_shapes"
    value {
      list {
        shape {
          dim {
            size: 5
          }
        }
      }
    }
  }
  attr {
    key: "dtype"
    value {
      type: DT_INT32
    }
  }
  attr {
    key: "value"
    value {
      tensor {
        dtype: DT_INT32
        tensor_shape {
          dim {
            size: 5
          }
        }
        tensor_content: "\003\000\000\000\003\000\000\000\003\000\000\000 \000\000\000 \000\000\000"
      }
    }
  }
}
node {
  name: "hyper_analysis_transform/layer_1/kernel_rdft/Initializer/truncated_normal/mean"
  op: "Const"
  attr {
    key: "_class"
    value {
      list {
        s: "loc:@hyper_analysis_transform/layer_1/kernel_rdft"
      }
    }
  }
  attr {
    key: "_output_shapes"
    value {
      list {
        shape {
        }
      }
    }
  }
  attr {
    key: "dtype"
    value {
      type: DT_FLOAT
    }
  }
  attr {
    key: "value"
    value {
      tensor {
        dtype: DT_FLOAT
        tensor_shape {
        }
        float_val: 0.0
      }
    }
  }
}
node {
  name: "hyper_analysis_transform/layer_1/kernel_rdft/Initializer/truncated_normal/stddev"
  op: "Const"
  attr {
    key: "_class"
    value {
      list {
        s: "loc:@hyper_analysis_transform/layer_1/kernel_rdft"
      }
    }
  }
  attr {
    key: "_output_shapes"
    value {
      list {
        shape {
        }
      }
    }
  }
  attr {
    key: "dtype"
    value {
      type: DT_FLOAT
    }
  }
  attr {
    key: "value"
    value {
      tensor {
        dtype: DT_FLOAT
        tensor_shape {
        }
        float_val: 0.03867632895708084
      }
    }
  }
}
node {
  name: "hyper_analysis_transform/layer_1/kernel_rdft/Initializer/truncated_normal/TruncatedNormal"
  op: "TruncatedNormal"
  input: "hyper_analysis_transform/layer_1/kernel_rdft/Initializer/truncated_normal/shape"
  attr {
    key: "T"
    value {
      type: DT_INT32
    }
  }
  attr {
    key: "_class"
    value {
      list {
        s: "loc:@hyper_analysis_transform/layer_1/kernel_rdft"
      }
    }
  }
  attr {
    key: "_output_shapes"
    value {
      list {
        shape {
          dim {
            size: 3
          }
          dim {
            size: 3
          }
          dim {
            size: 3
          }
          dim {
            size: 32
          }
          dim {
            size: 32
          }
        }
      }
    }
  }
  attr {
    key: "dtype"
    value {
      type: DT_FLOAT
    }
  }
  attr {
    key: "seed"
    value {
      i: 0
    }
  }
  attr {
    key: "seed2"
    value {
      i: 0
    }
  }
}
node {
  name: "hyper_analysis_transform/layer_1/kernel_rdft/Initializer/truncated_normal/mul"
  op: "Mul"
  input: "hyper_analysis_transform/layer_1/kernel_rdft/Initializer/truncated_normal/TruncatedNormal"
  input: "hyper_analysis_transform/layer_1/kernel_rdft/Initializer/truncated_normal/stddev"
  attr {
    key: "T"
    value {
      type: DT_FLOAT
    }
  }
  attr {
    key: "_class"
    value {
      list {
        s: "loc:@hyper_analysis_transform/layer_1/kernel_rdft"
      }
    }
  }
  attr {
    key: "_output_shapes"
    value {
      list {
        shape {
          dim {
            size: 3
          }
          dim {
            size: 3
          }
          dim {
            size: 3
          }
          dim {
            size: 32
          }
          dim {
            size: 32
          }
        }
      }
    }
  }
}
node {
  name: "hyper_analysis_transform/layer_1/kernel_rdft/Initializer/truncated_normal"
  op: "Add"
  input: "hyper_analysis_transform/layer_1/kernel_rdft/Initializer/truncated_normal/mul"
  input: "hyper_analysis_transform/layer_1/kernel_rdft/Initializer/truncated_normal/mean"
  attr {
    key: "T"
    value {
      type: DT_FLOAT
    }
  }
  attr {
    key: "_class"
    value {
      list {
        s: "loc:@hyper_analysis_transform/layer_1/kernel_rdft"
      }
    }
  }
  attr {
    key: "_output_shapes"
    value {
      list {
        shape {
          dim {
            size: 3
          }
          dim {
            size: 3
          }
          dim {
            size: 3
          }
          dim {
            size: 32
          }
          dim {
            size: 32
          }
        }
      }
    }
  }
}
node {
  name: "hyper_analysis_transform/layer_1/kernel_rdft/Initializer/Reshape/shape"
  op: "Const"
  attr {
    key: "_class"
    value {
      list {
        s: "loc:@hyper_analysis_transform/layer_1/kernel_rdft"
      }
    }
  }
  attr {
    key: "_output_shapes"
    value {
      list {
        shape {
          dim {
            size: 2
          }
        }
      }
    }
  }
  attr {
    key: "dtype"
    value {
      type: DT_INT32
    }
  }
  attr {
    key: "value"
    value {
      tensor {
        dtype: DT_INT32
        tensor_shape {
          dim {
            size: 2
          }
        }
        tensor_content: "\377\377\377\377\000\004\000\000"
      }
    }
  }
}
node {
  name: "hyper_analysis_transform/layer_1/kernel_rdft/Initializer/Reshape"
  op: "Reshape"
  input: "hyper_analysis_transform/layer_1/kernel_rdft/Initializer/truncated_normal"
  input: "hyper_analysis_transform/layer_1/kernel_rdft/Initializer/Reshape/shape"
  attr {
    key: "T"
    value {
      type: DT_FLOAT
    }
  }
  attr {
    key: "Tshape"
    value {
      type: DT_INT32
    }
  }
  attr {
    key: "_class"
    value {
      list {
        s: "loc:@hyper_analysis_transform/layer_1/kernel_rdft"
      }
    }
  }
  attr {
    key: "_output_shapes"
    value {
      list {
        shape {
          dim {
            size: 27
          }
          dim {
            size: 1024
          }
        }
      }
    }
  }
}
node {
  name: "hyper_analysis_transform/layer_1/kernel_rdft/Initializer/MatMul"
  op: "MatMul"
  input: "hyper_analysis_transform/layer_0/kernel_rdft/Initializer/irdft_3x3x3"
  input: "hyper_analysis_transform/layer_1/kernel_rdft/Initializer/Reshape"
  attr {
    key: "T"
    value {
      type: DT_FLOAT
    }
  }
  attr {
    key: "_class"
    value {
      list {
        s: "loc:@hyper_analysis_transform/layer_1/kernel_rdft"
      }
    }
  }
  attr {
    key: "_output_shapes"
    value {
      list {
        shape {
          dim {
            size: 27
          }
          dim {
            size: 1024
          }
        }
      }
    }
  }
  attr {
    key: "transpose_a"
    value {
      b: true
    }
  }
  attr {
    key: "transpose_b"
    value {
      b: false
    }
  }
}
node {
  name: "hyper_analysis_transform/layer_1/kernel_rdft"
  op: "VarHandleOp"
  attr {
    key: "_class"
    value {
      list {
        s: "loc:@hyper_analysis_transform/layer_1/kernel_rdft"
      }
    }
  }
  attr {
    key: "_output_shapes"
    value {
      list {
        shape {
        }
      }
    }
  }
  attr {
    key: "container"
    value {
      s: ""
    }
  }
  attr {
    key: "dtype"
    value {
      type: DT_FLOAT
    }
  }
  attr {
    key: "shape"
    value {
      shape {
        dim {
          size: 27
        }
        dim {
          size: 1024
        }
      }
    }
  }
  attr {
    key: "shared_name"
    value {
      s: "hyper_analysis_transform/layer_1/kernel_rdft"
    }
  }
}
node {
  name: "hyper_analysis_transform/layer_1/kernel_rdft/IsInitialized/VarIsInitializedOp"
  op: "VarIsInitializedOp"
  input: "hyper_analysis_transform/layer_1/kernel_rdft"
  attr {
    key: "_output_shapes"
    value {
      list {
        shape {
        }
      }
    }
  }
}
node {
  name: "hyper_analysis_transform/layer_1/kernel_rdft/Assign"
  op: "AssignVariableOp"
  input: "hyper_analysis_transform/layer_1/kernel_rdft"
  input: "hyper_analysis_transform/layer_1/kernel_rdft/Initializer/MatMul"
  attr {
    key: "_class"
    value {
      list {
        s: "loc:@hyper_analysis_transform/layer_1/kernel_rdft"
      }
    }
  }
  attr {
    key: "dtype"
    value {
      type: DT_FLOAT
    }
  }
}
node {
  name: "hyper_analysis_transform/layer_1/kernel_rdft/Read/ReadVariableOp"
  op: "ReadVariableOp"
  input: "hyper_analysis_transform/layer_1/kernel_rdft"
  attr {
    key: "_class"
    value {
      list {
        s: "loc:@hyper_analysis_transform/layer_1/kernel_rdft"
      }
    }
  }
  attr {
    key: "_output_shapes"
    value {
      list {
        shape {
          dim {
            size: 27
          }
          dim {
            size: 1024
          }
        }
      }
    }
  }
  attr {
    key: "dtype"
    value {
      type: DT_FLOAT
    }
  }
}
node {
  name: "hyper_analysis_transform/layer_1/MatMul/ReadVariableOp"
  op: "ReadVariableOp"
  input: "hyper_analysis_transform/layer_1/kernel_rdft"
  attr {
    key: "_output_shapes"
    value {
      list {
        shape {
          dim {
            size: 27
          }
          dim {
            size: 1024
          }
        }
      }
    }
  }
  attr {
    key: "dtype"
    value {
      type: DT_FLOAT
    }
  }
}
node {
  name: "hyper_analysis_transform/layer_1/MatMul"
  op: "MatMul"
  input: "hyper_analysis_transform/layer_0/kernel_rdft/Initializer/irdft_3x3x3"
  input: "hyper_analysis_transform/layer_1/MatMul/ReadVariableOp"
  attr {
    key: "T"
    value {
      type: DT_FLOAT
    }
  }
  attr {
    key: "_output_shapes"
    value {
      list {
        shape {
          dim {
            size: 27
          }
          dim {
            size: 1024
          }
        }
      }
    }
  }
  attr {
    key: "transpose_a"
    value {
      b: false
    }
  }
  attr {
    key: "transpose_b"
    value {
      b: false
    }
  }
}
node {
  name: "hyper_analysis_transform/layer_1/Reshape/shape"
  op: "Const"
  attr {
    key: "_output_shapes"
    value {
      list {
        shape {
          dim {
            size: 5
          }
        }
      }
    }
  }
  attr {
    key: "dtype"
    value {
      type: DT_INT32
    }
  }
  attr {
    key: "value"
    value {
      tensor {
        dtype: DT_INT32
        tensor_shape {
          dim {
            size: 5
          }
        }
        tensor_content: "\003\000\000\000\003\000\000\000\003\000\000\000 \000\000\000 \000\000\000"
      }
    }
  }
}
node {
  name: "hyper_analysis_transform/layer_1/Reshape"
  op: "Reshape"
  input: "hyper_analysis_transform/layer_1/MatMul"
  input: "hyper_analysis_transform/layer_1/Reshape/shape"
  attr {
    key: "T"
    value {
      type: DT_FLOAT
    }
  }
  attr {
    key: "Tshape"
    value {
      type: DT_INT32
    }
  }
  attr {
    key: "_output_shapes"
    value {
      list {
        shape {
          dim {
            size: 3
          }
          dim {
            size: 3
          }
          dim {
            size: 3
          }
          dim {
            size: 32
          }
          dim {
            size: 32
          }
        }
      }
    }
  }
}
node {
  name: "hyper_analysis_transform/layer_1/bias/Initializer/zeros"
  op: "Const"
  attr {
    key: "_class"
    value {
      list {
        s: "loc:@hyper_analysis_transform/layer_1/bias"
      }
    }
  }
  attr {
    key: "_output_shapes"
    value {
      list {
        shape {
          dim {
            size: 32
          }
        }
      }
    }
  }
  attr {
    key: "dtype"
    value {
      type: DT_FLOAT
    }
  }
  attr {
    key: "value"
    value {
      tensor {
        dtype: DT_FLOAT
        tensor_shape {
          dim {
            size: 32
          }
        }
        float_val: 0.0
      }
    }
  }
}
node {
  name: "hyper_analysis_transform/layer_1/bias"
  op: "VarHandleOp"
  attr {
    key: "_class"
    value {
      list {
        s: "loc:@hyper_analysis_transform/layer_1/bias"
      }
    }
  }
  attr {
    key: "_output_shapes"
    value {
      list {
        shape {
        }
      }
    }
  }
  attr {
    key: "container"
    value {
      s: ""
    }
  }
  attr {
    key: "dtype"
    value {
      type: DT_FLOAT
    }
  }
  attr {
    key: "shape"
    value {
      shape {
        dim {
          size: 32
        }
      }
    }
  }
  attr {
    key: "shared_name"
    value {
      s: "hyper_analysis_transform/layer_1/bias"
    }
  }
}
node {
  name: "hyper_analysis_transform/layer_1/bias/IsInitialized/VarIsInitializedOp"
  op: "VarIsInitializedOp"
  input: "hyper_analysis_transform/layer_1/bias"
  attr {
    key: "_output_shapes"
    value {
      list {
        shape {
        }
      }
    }
  }
}
node {
  name: "hyper_analysis_transform/layer_1/bias/Assign"
  op: "AssignVariableOp"
  input: "hyper_analysis_transform/layer_1/bias"
  input: "hyper_analysis_transform/layer_1/bias/Initializer/zeros"
  attr {
    key: "_class"
    value {
      list {
        s: "loc:@hyper_analysis_transform/layer_1/bias"
      }
    }
  }
  attr {
    key: "dtype"
    value {
      type: DT_FLOAT
    }
  }
}
node {
  name: "hyper_analysis_transform/layer_1/bias/Read/ReadVariableOp"
  op: "ReadVariableOp"
  input: "hyper_analysis_transform/layer_1/bias"
  attr {
    key: "_class"
    value {
      list {
        s: "loc:@hyper_analysis_transform/layer_1/bias"
      }
    }
  }
  attr {
    key: "_output_shapes"
    value {
      list {
        shape {
          dim {
            size: 32
          }
        }
      }
    }
  }
  attr {
    key: "dtype"
    value {
      type: DT_FLOAT
    }
  }
}
node {
  name: "hyper_analysis_transform/layer_1/Pad/paddings"
  op: "Const"
  attr {
    key: "_output_shapes"
    value {
      list {
        shape {
          dim {
            size: 5
          }
          dim {
            size: 2
          }
        }
      }
    }
  }
  attr {
    key: "dtype"
    value {
      type: DT_INT32
    }
  }
  attr {
    key: "value"
    value {
      tensor {
        dtype: DT_INT32
        tensor_shape {
          dim {
            size: 5
          }
          dim {
            size: 2
          }
        }
        tensor_content: "…"
      }
    }
  }
}
node {
  name: "hyper_analysis_transform/layer_1/Pad"
  op: "Pad"
  input: "hyper_analysis_transform/layer_0/Relu"
  input: "hyper_analysis_transform/layer_1/Pad/paddings"
  attr {
    key: "T"
    value {
      type: DT_FLOAT
    }
  }
  attr {
    key: "Tpaddings"
    value {
      type: DT_INT32
    }
  }
  attr {
    key: "_output_shapes"
    value {
      list {
        shape {
          dim {
            size: -1
          }
          dim {
            size: 10
          }
          dim {
            size: 10
          }
          dim {
            size: 10
          }
          dim {
            size: 32
          }
        }
      }
    }
  }
}
node {
  name: "hyper_analysis_transform/layer_1/convolution"
  op: "Conv3D"
  input: "hyper_analysis_transform/layer_1/Pad"
  input: "hyper_analysis_transform/layer_1/Reshape"
  attr {
    key: "T"
    value {
      type: DT_FLOAT
    }
  }
  attr {
    key: "_output_shapes"
    value {
      list {
        shape {
          dim {
            size: -1
          }
          dim {
            size: 4
          }
          dim {
            size: 4
          }
          dim {
            size: 4
          }
          dim {
            size: 32
          }
        }
      }
    }
  }
  attr {
    key: "data_format"
    value {
      s: "NDHWC"
    }
  }
  attr {
    key: "dilations"
    value {
      list {
        i: 1
        i: 1
        i: 1
        i: 1
        i: 1
      }
    }
  }
  attr {
    key: "padding"
    value {
      s: "VALID"
    }
  }
  attr {
    key: "strides"
    value {
      list {
        i: 1
        i: 2
        i: 2
        i: 2
        i: 1
      }
    }
  }
}
node {
  name: "hyper_analysis_transform/layer_1/BiasAdd/ReadVariableOp"
  op: "ReadVariableOp"
  input: "hyper_analysis_transform/layer_1/bias"
  attr {
    key: "_output_shapes"
    value {
      list {
        shape {
          dim {
            size: 32
          }
        }
      }
    }
  }
  attr {
    key: "dtype"
    value {
      type: DT_FLOAT
    }
  }
}
node {
  name: "hyper_analysis_transform/layer_1/BiasAdd"
  op: "BiasAdd"
  input: "hyper_analysis_transform/layer_1/convolution"
  input: "hyper_analysis_transform/layer_1/BiasAdd/ReadVariableOp"
  attr {
    key: "T"
    value {
      type: DT_FLOAT
    }
  }
  attr {
    key: "_output_shapes"
    value {
      list {
        shape {
          dim {
            size: -1
          }
          dim {
            size: 4
          }
          dim {
            size: 4
          }
          dim {
            size: 4
          }
          dim {
            size: 32
          }
        }
      }
    }
  }
  attr {
    key: "data_format"
    value {
      s: "NHWC"
    }
  }
}
node {
  name: "hyper_analysis_transform/layer_1/Relu"
  op: "Relu"
  input: "hyper_analysis_transform/layer_1/BiasAdd"
  attr {
    key: "T"
    value {
      type: DT_FLOAT
    }
  }
  attr {
    key: "_output_shapes"
    value {
      list {
        shape {
          dim {
            size: -1
          }
          dim {
            size: 4
          }
          dim {
            size: 4
          }
          dim {
            size: 4
          }
          dim {
            size: 32
          }
        }
      }
    }
  }
}
node {
  name: "hyper_analysis_transform/layer_2/kernel_rdft/Initializer/truncated_normal/shape"
  op: "Const"
  attr {
    key: "_class"
    value {
      list {
        s: "loc:@hyper_analysis_transform/layer_2/kernel_rdft"
      }
    }
  }
  attr {
    key: "_output_shapes"
    value {
      list {
        shape {
          dim {
            size: 5
          }
        }
      }
    }
  }
  attr {
    key: "dtype"
    value {
      type: DT_INT32
    }
  }
  attr {
    key: "value"
    value {
      tensor {
        dtype: DT_INT32
        tensor_shape {
          dim {
            size: 5
          }
        }
        tensor_content: "\003\000\000\000\003\000\000\000\003\000\000\000 \000\000\000 \000\000\000"
      }
    }
  }
}
node {
  name: "hyper_analysis_transform/layer_2/kernel_rdft/Initializer/truncated_normal/mean"
  op: "Const"
  attr {
    key: "_class"
    value {
      list {
        s: "loc:@hyper_analysis_transform/layer_2/kernel_rdft"
      }
    }
  }
  attr {
    key: "_output_shapes"
    value {
      list {
        shape {
        }
      }
    }
  }
  attr {
    key: "dtype"
    value {
      type: DT_FLOAT
    }
  }
  attr {
    key: "value"
    value {
      tensor {
        dtype: DT_FLOAT
        tensor_shape {
        }
        float_val: 0.0
      }
    }
  }
}
node {
  name: "hyper_analysis_transform/layer_2/kernel_rdft/Initializer/truncated_normal/stddev"
  op: "Const"
  attr {
    key: "_class"
    value {
      list {
        s: "loc:@hyper_analysis_transform/layer_2/kernel_rdft"
      }
    }
  }
  attr {
    key: "_output_shapes"
    value {
      list {
        shape {
        }
      }
    }
  }
  attr {
    key: "dtype"
    value {
      type: DT_FLOAT
    }
  }
  attr {
    key: "value"
    value {
      tensor {
        dtype: DT_FLOAT
        tensor_shape {
        }
        float_val: 0.03867632895708084
      }
    }
  }
}
node {
  name: "hyper_analysis_transform/layer_2/kernel_rdft/Initializer/truncated_normal/TruncatedNormal"
  op: "TruncatedNormal"
  input: "hyper_analysis_transform/layer_2/kernel_rdft/Initializer/truncated_normal/shape"
  attr {
    key: "T"
    value {
      type: DT_INT32
    }
  }
  attr {
    key: "_class"
    value {
      list {
        s: "loc:@hyper_analysis_transform/layer_2/kernel_rdft"
      }
    }
  }
  attr {
    key: "_output_shapes"
    value {
      list {
        shape {
          dim {
            size: 3
          }
          dim {
            size: 3
          }
          dim {
            size: 3
          }
          dim {
            size: 32
          }
          dim {
            size: 32
          }
        }
      }
    }
  }
  attr {
    key: "dtype"
    value {
      type: DT_FLOAT
    }
  }
  attr {
    key: "seed"
    value {
      i: 0
    }
  }
  attr {
    key: "seed2"
    value {
      i: 0
    }
  }
}
node {
  name: "hyper_analysis_transform/layer_2/kernel_rdft/Initializer/truncated_normal/mul"
  op: "Mul"
  input: "hyper_analysis_transform/layer_2/kernel_rdft/Initializer/truncated_normal/TruncatedNormal"
  input: "hyper_analysis_transform/layer_2/kernel_rdft/Initializer/truncated_normal/stddev"
  attr {
    key: "T"
    value {
      type: DT_FLOAT
    }
  }
  attr {
    key: "_class"
    value {
      list {
        s: "loc:@hyper_analysis_transform/layer_2/kernel_rdft"
      }
    }
  }
  attr {
    key: "_output_shapes"
    value {
      list {
        shape {
          dim {
            size: 3
          }
          dim {
            size: 3
          }
          dim {
            size: 3
          }
          dim {
            size: 32
          }
          dim {
            size: 32
          }
        }
      }
    }
  }
}
node {
  name: "hyper_analysis_transform/layer_2/kernel_rdft/Initializer/truncated_normal"
  op: "Add"
  input: "hyper_analysis_transform/layer_2/kernel_rdft/Initializer/truncated_normal/mul"
  input: "hyper_analysis_transform/layer_2/kernel_rdft/Initializer/truncated_normal/mean"
  attr {
    key: "T"
    value {
      type: DT_FLOAT
    }
  }
  attr {
    key: "_class"
    value {
      list {
        s: "loc:@hyper_analysis_transform/layer_2/kernel_rdft"
      }
    }
  }
  attr {
    key: "_output_shapes"
    value {
      list {
        shape {
          dim {
            size: 3
          }
          dim {
            size: 3
          }
          dim {
            size: 3
          }
          dim {
            size: 32
          }
          dim {
            size: 32
          }
        }
      }
    }
  }
}
node {
  name: "hyper_analysis_transform/layer_2/kernel_rdft/Initializer/Reshape/shape"
  op: "Const"
  attr {
    key: "_class"
    value {
      list {
        s: "loc:@hyper_analysis_transform/layer_2/kernel_rdft"
      }
    }
  }
  attr {
    key: "_output_shapes"
    value {
      list {
        shape {
          dim {
            size: 2
          }
        }
      }
    }
  }
  attr {
    key: "dtype"
    value {
      type: DT_INT32
    }
  }
  attr {
    key: "value"
    value {
      tensor {
        dtype: DT_INT32
        tensor_shape {
          dim {
            size: 2
          }
        }
        tensor_content: "\377\377\377\377\000\004\000\000"
      }
    }
  }
}
node {
  name: "hyper_analysis_transform/layer_2/kernel_rdft/Initializer/Reshape"
  op: "Reshape"
  input: "hyper_analysis_transform/layer_2/kernel_rdft/Initializer/truncated_normal"
  input: "hyper_analysis_transform/layer_2/kernel_rdft/Initializer/Reshape/shape"
  attr {
    key: "T"
    value {
      type: DT_FLOAT
    }
  }
  attr {
    key: "Tshape"
    value {
      type: DT_INT32
    }
  }
  attr {
    key: "_class"
    value {
      list {
        s: "loc:@hyper_analysis_transform/layer_2/kernel_rdft"
      }
    }
  }
  attr {
    key: "_output_shapes"
    value {
      list {
        shape {
          dim {
            size: 27
          }
          dim {
            size: 1024
          }
        }
      }
    }
  }
}
node {
  name: "hyper_analysis_transform/layer_2/kernel_rdft/Initializer/MatMul"
  op: "MatMul"
  input: "hyper_analysis_transform/layer_0/kernel_rdft/Initializer/irdft_3x3x3"
  input: "hyper_analysis_transform/layer_2/kernel_rdft/Initializer/Reshape"
  attr {
    key: "T"
    value {
      type: DT_FLOAT
    }
  }
  attr {
    key: "_class"
    value {
      list {
        s: "loc:@hyper_analysis_transform/layer_2/kernel_rdft"
      }
    }
  }
  attr {
    key: "_output_shapes"
    value {
      list {
        shape {
          dim {
            size: 27
          }
          dim {
            size: 1024
          }
        }
      }
    }
  }
  attr {
    key: "transpose_a"
    value {
      b: true
    }
  }
  attr {
    key: "transpose_b"
    value {
      b: false
    }
  }
}
node {
  name: "hyper_analysis_transform/layer_2/kernel_rdft"
  op: "VarHandleOp"
  attr {
    key: "_class"
    value {
      list {
        s: "loc:@hyper_analysis_transform/layer_2/kernel_rdft"
      }
    }
  }
  attr {
    key: "_output_shapes"
    value {
      list {
        shape {
        }
      }
    }
  }
  attr {
    key: "container"
    value {
      s: ""
    }
  }
  attr {
    key: "dtype"
    value {
      type: DT_FLOAT
    }
  }
  attr {
    key: "shape"
    value {
      shape {
        dim {
          size: 27
        }
        dim {
          size: 1024
        }
      }
    }
  }
  attr {
    key: "shared_name"
    value {
      s: "hyper_analysis_transform/layer_2/kernel_rdft"
    }
  }
}
node {
  name: "hyper_analysis_transform/layer_2/kernel_rdft/IsInitialized/VarIsInitializedOp"
  op: "VarIsInitializedOp"
  input: "hyper_analysis_transform/layer_2/kernel_rdft"
  attr {
    key: "_output_shapes"
    value {
      list {
        shape {
        }
      }
    }
  }
}
node {
  name: "hyper_analysis_transform/layer_2/kernel_rdft/Assign"
  op: "AssignVariableOp"
  input: "hyper_analysis_transform/layer_2/kernel_rdft"
  input: "hyper_analysis_transform/layer_2/kernel_rdft/Initializer/MatMul"
  attr {
    key: "_class"
    value {
      list {
        s: "loc:@hyper_analysis_transform/layer_2/kernel_rdft"
      }
    }
  }
  attr {
    key: "dtype"
    value {
      type: DT_FLOAT
    }
  }
}
node {
  name: "hyper_analysis_transform/layer_2/kernel_rdft/Read/ReadVariableOp"
  op: "ReadVariableOp"
  input: "hyper_analysis_transform/layer_2/kernel_rdft"
  attr {
    key: "_class"
    value {
      list {
        s: "loc:@hyper_analysis_transform/layer_2/kernel_rdft"
      }
    }
  }
  attr {
    key: "_output_shapes"
    value {
      list {
        shape {
          dim {
            size: 27
          }
          dim {
            size: 1024
          }
        }
      }
    }
  }
  attr {
    key: "dtype"
    value {
      type: DT_FLOAT
    }
  }
}
node {
  name: "hyper_analysis_transform/layer_2/MatMul/ReadVariableOp"
  op: "ReadVariableOp"
  input: "hyper_analysis_transform/layer_2/kernel_rdft"
  attr {
    key: "_output_shapes"
    value {
      list {
        shape {
          dim {
            size: 27
          }
          dim {
            size: 1024
          }
        }
      }
    }
  }
  attr {
    key: "dtype"
    value {
      type: DT_FLOAT
    }
  }
}
node {
  name: "hyper_analysis_transform/layer_2/MatMul"
  op: "MatMul"
  input: "hyper_analysis_transform/layer_0/kernel_rdft/Initializer/irdft_3x3x3"
  input: "hyper_analysis_transform/layer_2/MatMul/ReadVariableOp"
  attr {
    key: "T"
    value {
      type: DT_FLOAT
    }
  }
  attr {
    key: "_output_shapes"
    value {
      list {
        shape {
          dim {
            size: 27
          }
          dim {
            size: 1024
          }
        }
      }
    }
  }
  attr {
    key: "transpose_a"
    value {
      b: false
    }
  }
  attr {
    key: "transpose_b"
    value {
      b: false
    }
  }
}
node {
  name: "hyper_analysis_transform/layer_2/Reshape/shape"
  op: "Const"
  attr {
    key: "_output_shapes"
    value {
      list {
        shape {
          dim {
            size: 5
          }
        }
      }
    }
  }
  attr {
    key: "dtype"
    value {
      type: DT_INT32
    }
  }
  attr {
    key: "value"
    value {
      tensor {
        dtype: DT_INT32
        tensor_shape {
          dim {
            size: 5
          }
        }
        tensor_content: "\003\000\000\000\003\000\000\000\003\000\000\000 \000\000\000 \000\000\000"
      }
    }
  }
}
node {
  name: "hyper_analysis_transform/layer_2/Reshape"
  op: "Reshape"
  input: "hyper_analysis_transform/layer_2/MatMul"
  input: "hyper_analysis_transform/layer_2/Reshape/shape"
  attr {
    key: "T"
    value {
      type: DT_FLOAT
    }
  }
  attr {
    key: "Tshape"
    value {
      type: DT_INT32
    }
  }
  attr {
    key: "_output_shapes"
    value {
      list {
        shape {
          dim {
            size: 3
          }
          dim {
            size: 3
          }
          dim {
            size: 3
          }
          dim {
            size: 32
          }
          dim {
            size: 32
          }
        }
      }
    }
  }
}
node {
  name: "hyper_analysis_transform/layer_2/Pad/paddings"
  op: "Const"
  attr {
    key: "_output_shapes"
    value {
      list {
        shape {
          dim {
            size: 5
          }
          dim {
            size: 2
          }
        }
      }
    }
  }
  attr {
    key: "dtype"
    value {
      type: DT_INT32
    }
  }
  attr {
    key: "value"
    value {
      tensor {
        dtype: DT_INT32
        tensor_shape {
          dim {
            size: 5
          }
          dim {
            size: 2
          }
        }
        tensor_content: "…"
      }
    }
  }
}
node {
  name: "hyper_analysis_transform/layer_2/Pad"
  op: "Pad"
  input: "hyper_analysis_transform/layer_1/Relu"
  input: "hyper_analysis_transform/layer_2/Pad/paddings"
  attr {
    key: "T"
    value {
      type: DT_FLOAT
    }
  }
  attr {
    key: "Tpaddings"
    value {
      type: DT_INT32
    }
  }
  attr {
    key: "_output_shapes"
    value {
      list {
        shape {
          dim {
            size: -1
          }
          dim {
            size: 6
          }
          dim {
            size: 6
          }
          dim {
            size: 6
          }
          dim {
            size: 32
          }
        }
      }
    }
  }
}
node {
  name: "hyper_analysis_transform/layer_2/convolution"
  op: "Conv3D"
  input: "hyper_analysis_transform/layer_2/Pad"
  input: "hyper_analysis_transform/layer_2/Reshape"
  attr {
    key: "T"
    value {
      type: DT_FLOAT
    }
  }
  attr {
    key: "_output_shapes"
    value {
      list {
        shape {
          dim {
            size: -1
          }
          dim {
            size: 2
          }
          dim {
            size: 2
          }
          dim {
            size: 2
          }
          dim {
            size: 32
          }
        }
      }
    }
  }
  attr {
    key: "data_format"
    value {
      s: "NDHWC"
    }
  }
  attr {
    key: "dilations"
    value {
      list {
        i: 1
        i: 1
        i: 1
        i: 1
        i: 1
      }
    }
  }
  attr {
    key: "padding"
    value {
      s: "VALID"
    }
  }
  attr {
    key: "strides"
    value {
      list {
        i: 1
        i: 2
        i: 2
        i: 2
        i: 1
      }
    }
  }
}
node {
  name: "entropy_bottleneck/matrix_0/Initializer/Const"
  op: "Const"
  attr {
    key: "_class"
    value {
      list {
        s: "loc:@entropy_bottleneck/matrix_0"
      }
    }
  }
  attr {
    key: "_output_shapes"
    value {
      list {
        shape {
          dim {
            size: 32
          }
          dim {
            size: 3
          }
          dim {
            size: 1
          }
        }
      }
    }
  }
  attr {
    key: "dtype"
    value {
      type: DT_FLOAT
    }
  }
  attr {
    key: "value"
    value {
      tensor {
        dtype: DT_FLOAT
        tensor_shape {
          dim {
            size: 32
          }
          dim {
            size: 3
          }
          dim {
            size: 1
          }
        }
        float_val: -1.5790714025497437
      }
    }
  }
}
node {
  name: "entropy_bottleneck/matrix_0"
  op: "VarHandleOp"
  attr {
    key: "_class"
    value {
      list {
        s: "loc:@entropy_bottleneck/matrix_0"
      }
    }
  }
  attr {
    key: "_output_shapes"
    value {
      list {
        shape {
        }
      }
    }
  }
  attr {
    key: "container"
    value {
      s: ""
    }
  }
  attr {
    key: "dtype"
    value {
      type: DT_FLOAT
    }
  }
  attr {
    key: "shape"
    value {
      shape {
        dim {
          size: 32
        }
        dim {
          size: 3
        }
        dim {
          size: 1
        }
      }
    }
  }
  attr {
    key: "shared_name"
    value {
      s: "entropy_bottleneck/matrix_0"
    }
  }
}
node {
  name: "entropy_bottleneck/matrix_0/IsInitialized/VarIsInitializedOp"
  op: "VarIsInitializedOp"
  input: "entropy_bottleneck/matrix_0"
  attr {
    key: "_output_shapes"
    value {
      list {
        shape {
        }
      }
    }
  }
}
node {
  name: "entropy_bottleneck/matrix_0/Assign"
  op: "AssignVariableOp"
  input: "entropy_bottleneck/matrix_0"
  input: "entropy_bottleneck/matrix_0/Initializer/Const"
  attr {
    key: "_class"
    value {
      list {
        s: "loc:@entropy_bottleneck/matrix_0"
      }
    }
  }
  attr {
    key: "dtype"
    value {
      type: DT_FLOAT
    }
  }
}
node {
  name: "entropy_bottleneck/matrix_0/Read/ReadVariableOp"
  op: "ReadVariableOp"
  input: "entropy_bottleneck/matrix_0"
  attr {
    key: "_class"
    value {
      list {
        s: "loc:@entropy_bottleneck/matrix_0"
      }
    }
  }
  attr {
    key: "_output_shapes"
    value {
      list {
        shape {
          dim {
            size: 32
          }
          dim {
            size: 3
          }
          dim {
            size: 1
          }
        }
      }
    }
  }
  attr {
    key: "dtype"
    value {
      type: DT_FLOAT
    }
  }
}
node {
  name: "entropy_bottleneck/Softplus/ReadVariableOp"
  op: "ReadVariableOp"
  input: "entropy_bottleneck/matrix_0"
  attr {
    key: "_output_shapes"
    value {
      list {
        shape {
          dim {
            size: 32
          }
          dim {
            size: 3
          }
          dim {
            size: 1
          }
        }
      }
    }
  }
  attr {
    key: "dtype"
    value {
      type: DT_FLOAT
    }
  }
}
node {
  name: "entropy_bottleneck/Softplus"
  op: "Softplus"
  input: "entropy_bottleneck/Softplus/ReadVariableOp"
  attr {
    key: "T"
    value {
      type: DT_FLOAT
    }
  }
  attr {
    key: "_output_shapes"
    value {
      list {
        shape {
          dim {
            size: 32
          }
          dim {
            size: 3
          }
          dim {
            size: 1
          }
        }
      }
    }
  }
}
node {
  name: "entropy_bottleneck/bias_0/Initializer/random_uniform/shape"
  op: "Const"
  attr {
    key: "_class"
    value {
      list {
        s: "loc:@entropy_bottleneck/bias_0"
      }
    }
  }
  attr {
    key: "_output_shapes"
    value {
      list {
        shape {
          dim {
            size: 3
          }
        }
      }
    }
  }
  attr {
    key: "dtype"
    value {
      type: DT_INT32
    }
  }
  attr {
    key: "value"
    value {
      tensor {
        dtype: DT_INT32
        tensor_shape {
          dim {
            size: 3
          }
        }
        tensor_content: " \000\000\000\003\000\000\000\001\000\000\000"
      }
    }
  }
}
node {
  name: "entropy_bottleneck/bias_0/Initializer/random_uniform/min"
  op: "Const"
  attr {
    key: "_class"
    value {
      list {
        s: "loc:@entropy_bottleneck/bias_0"
      }
    }
  }
  attr {
    key: "_output_shapes"
    value {
      list {
        shape {
        }
      }
    }
  }
  attr {
    key: "dtype"
    value {
      type: DT_FLOAT
    }
  }
  attr {
    key: "value"
    value {
      tensor {
        dtype: DT_FLOAT
        tensor_shape {
        }
        float_val: -0.5
      }
    }
  }
}
node {
  name: "entropy_bottleneck/bias_0/Initializer/random_uniform/max"
  op: "Const"
  attr {
    key: "_class"
    value {
      list {
        s: "loc:@entropy_bottleneck/bias_0"
      }
    }
  }
  attr {
    key: "_output_shapes"
    value {
      list {
        shape {
        }
      }
    }
  }
  attr {
    key: "dtype"
    value {
      type: DT_FLOAT
    }
  }
  attr {
    key: "value"
    value {
      tensor {
        dtype: DT_FLOAT
        tensor_shape {
        }
        float_val: 0.5
      }
    }
  }
}
node {
  name: "entropy_bottleneck/bias_0/Initializer/random_uniform/RandomUniform"
  op: "RandomUniform"
  input: "entropy_bottleneck/bias_0/Initializer/random_uniform/shape"
  attr {
    key: "T"
    value {
      type: DT_INT32
    }
  }
  attr {
    key: "_class"
    value {
      list {
        s: "loc:@entropy_bottleneck/bias_0"
      }
    }
  }
  attr {
    key: "_output_shapes"
    value {
      list {
        shape {
          dim {
            size: 32
          }
          dim {
            size: 3
          }
          dim {
            size: 1
          }
        }
      }
    }
  }
  attr {
    key: "dtype"
    value {
      type: DT_FLOAT
    }
  }
  attr {
    key: "seed"
    value {
      i: 0
    }
  }
  attr {
    key: "seed2"
    value {
      i: 0
    }
  }
}
node {
  name: "entropy_bottleneck/bias_0/Initializer/random_uniform/sub"
  op: "Sub"
  input: "entropy_bottleneck/bias_0/Initializer/random_uniform/max"
  input: "entropy_bottleneck/bias_0/Initializer/random_uniform/min"
  attr {
    key: "T"
    value {
      type: DT_FLOAT
    }
  }
  attr {
    key: "_class"
    value {
      list {
        s: "loc:@entropy_bottleneck/bias_0"
      }
    }
  }
  attr {
    key: "_output_shapes"
    value {
      list {
        shape {
        }
      }
    }
  }
}
node {
  name: "entropy_bottleneck/bias_0/Initializer/random_uniform/mul"
  op: "Mul"
  input: "entropy_bottleneck/bias_0/Initializer/random_uniform/RandomUniform"
  input: "entropy_bottleneck/bias_0/Initializer/random_uniform/sub"
  attr {
    key: "T"
    value {
      type: DT_FLOAT
    }
  }
  attr {
    key: "_class"
    value {
      list {
        s: "loc:@entropy_bottleneck/bias_0"
      }
    }
  }
  attr {
    key: "_output_shapes"
    value {
      list {
        shape {
          dim {
            size: 32
          }
          dim {
            size: 3
          }
          dim {
            size: 1
          }
        }
      }
    }
  }
}
node {
  name: "entropy_bottleneck/bias_0/Initializer/random_uniform"
  op: "Add"
  input: "entropy_bottleneck/bias_0/Initializer/random_uniform/mul"
  input: "entropy_bottleneck/bias_0/Initializer/random_uniform/min"
  attr {
    key: "T"
    value {
      type: DT_FLOAT
    }
  }
  attr {
    key: "_class"
    value {
      list {
        s: "loc:@entropy_bottleneck/bias_0"
      }
    }
  }
  attr {
    key: "_output_shapes"
    value {
      list {
        shape {
          dim {
            size: 32
          }
          dim {
            size: 3
          }
          dim {
            size: 1
          }
        }
      }
    }
  }
}
node {
  name: "entropy_bottleneck/bias_0"
  op: "VarHandleOp"
  attr {
    key: "_class"
    value {
      list {
        s: "loc:@entropy_bottleneck/bias_0"
      }
    }
  }
  attr {
    key: "_output_shapes"
    value {
      list {
        shape {
        }
      }
    }
  }
  attr {
    key: "container"
    value {
      s: ""
    }
  }
  attr {
    key: "dtype"
    value {
      type: DT_FLOAT
    }
  }
  attr {
    key: "shape"
    value {
      shape {
        dim {
          size: 32
        }
        dim {
          size: 3
        }
        dim {
          size: 1
        }
      }
    }
  }
  attr {
    key: "shared_name"
    value {
      s: "entropy_bottleneck/bias_0"
    }
  }
}
node {
  name: "entropy_bottleneck/bias_0/IsInitialized/VarIsInitializedOp"
  op: "VarIsInitializedOp"
  input: "entropy_bottleneck/bias_0"
  attr {
    key: "_output_shapes"
    value {
      list {
        shape {
        }
      }
    }
  }
}
node {
  name: "entropy_bottleneck/bias_0/Assign"
  op: "AssignVariableOp"
  input: "entropy_bottleneck/bias_0"
  input: "entropy_bottleneck/bias_0/Initializer/random_uniform"
  attr {
    key: "_class"
    value {
      list {
        s: "loc:@entropy_bottleneck/bias_0"
      }
    }
  }
  attr {
    key: "dtype"
    value {
      type: DT_FLOAT
    }
  }
}
node {
  name: "entropy_bottleneck/bias_0/Read/ReadVariableOp"
  op: "ReadVariableOp"
  input: "entropy_bottleneck/bias_0"
  attr {
    key: "_class"
    value {
      list {
        s: "loc:@entropy_bottleneck/bias_0"
      }
    }
  }
  attr {
    key: "_output_shapes"
    value {
      list {
        shape {
          dim {
            size: 32
          }
          dim {
            size: 3
          }
          dim {
            size: 1
          }
        }
      }
    }
  }
  attr {
    key: "dtype"
    value {
      type: DT_FLOAT
    }
  }
}
node {
  name: "entropy_bottleneck/factor_0/Initializer/zeros"
  op: "Const"
  attr {
    key: "_class"
    value {
      list {
        s: "loc:@entropy_bottleneck/factor_0"
      }
    }
  }
  attr {
    key: "_output_shapes"
    value {
      list {
        shape {
          dim {
            size: 32
          }
          dim {
            size: 3
          }
          dim {
            size: 1
          }
        }
      }
    }
  }
  attr {
    key: "dtype"
    value {
      type: DT_FLOAT
    }
  }
  attr {
    key: "value"
    value {
      tensor {
        dtype: DT_FLOAT
        tensor_shape {
          dim {
            size: 32
          }
          dim {
            size: 3
          }
          dim {
            size: 1
          }
        }
        float_val: 0.0
      }
    }
  }
}
node {
  name: "entropy_bottleneck/factor_0"
  op: "VarHandleOp"
  attr {
    key: "_class"
    value {
      list {
        s: "loc:@entropy_bottleneck/factor_0"
      }
    }
  }
  attr {
    key: "_output_shapes"
    value {
      list {
        shape {
        }
      }
    }
  }
  attr {
    key: "container"
    value {
      s: ""
    }
  }
  attr {
    key: "dtype"
    value {
      type: DT_FLOAT
    }
  }
  attr {
    key: "shape"
    value {
      shape {
        dim {
          size: 32
        }
        dim {
          size: 3
        }
        dim {
          size: 1
        }
      }
    }
  }
  attr {
    key: "shared_name"
    value {
      s: "entropy_bottleneck/factor_0"
    }
  }
}
node {
  name: "entropy_bottleneck/factor_0/IsInitialized/VarIsInitializedOp"
  op: "VarIsInitializedOp"
  input: "entropy_bottleneck/factor_0"
  attr {
    key: "_output_shapes"
    value {
      list {
        shape {
        }
      }
    }
  }
}
node {
  name: "entropy_bottleneck/factor_0/Assign"
  op: "AssignVariableOp"
  input: "entropy_bottleneck/factor_0"
  input: "entropy_bottleneck/factor_0/Initializer/zeros"
  attr {
    key: "_class"
    value {
      list {
        s: "loc:@entropy_bottleneck/factor_0"
      }
    }
  }
  attr {
    key: "dtype"
    value {
      type: DT_FLOAT
    }
  }
}
node {
  name: "entropy_bottleneck/factor_0/Read/ReadVariableOp"
  op: "ReadVariableOp"
  input: "entropy_bottleneck/factor_0"
  attr {
    key: "_class"
    value {
      list {
        s: "loc:@entropy_bottleneck/factor_0"
      }
    }
  }
  attr {
    key: "_output_shapes"
    value {
      list {
        shape {
          dim {
            size: 32
          }
          dim {
            size: 3
          }
          dim {
            size: 1
          }
        }
      }
    }
  }
  attr {
    key: "dtype"
    value {
      type: DT_FLOAT
    }
  }
}
node {
  name: "entropy_bottleneck/Tanh/ReadVariableOp"
  op: "ReadVariableOp"
  input: "entropy_bottleneck/factor_0"
  attr {
    key: "_output_shapes"
    value {
      list {
        shape {
          dim {
            size: 32
          }
          dim {
            size: 3
          }
          dim {
            size: 1
          }
        }
      }
    }
  }
  attr {
    key: "dtype"
    value {
      type: DT_FLOAT
    }
  }
}
node {
  name: "entropy_bottleneck/Tanh"
  op: "Tanh"
  input: "entropy_bottleneck/Tanh/ReadVariableOp"
  attr {
    key: "T"
    value {
      type: DT_FLOAT
    }
  }
  attr {
    key: "_output_shapes"
    value {
      list {
        shape {
          dim {
            size: 32
          }
          dim {
            size: 3
          }
          dim {
            size: 1
          }
        }
      }
    }
  }
}
node {
  name: "entropy_bottleneck/matrix_1/Initializer/Const"
  op: "Const"
  attr {
    key: "_class"
    value {
      list {
        s: "loc:@entropy_bottleneck/matrix_1"
      }
    }
  }
  attr {
    key: "_output_shapes"
    value {
      list {
        shape {
          dim {
            size: 32
          }
          dim {
            size: 3
          }
          dim {
            size: 3
          }
        }
      }
    }
  }
  attr {
    key: "dtype"
    value {
      type: DT_FLOAT
    }
  }
  attr {
    key: "value"
    value {
      tensor {
        dtype: DT_FLOAT
        tensor_shape {
          dim {
            size: 32
          }
          dim {
            size: 3
          }
          dim {
            size: 3
          }
        }
        float_val: -1.5790714025497437
      }
    }
  }
}
node {
  name: "entropy_bottleneck/matrix_1"
  op: "VarHandleOp"
  attr {
    key: "_class"
    value {
      list {
        s: "loc:@entropy_bottleneck/matrix_1"
      }
    }
  }
  attr {
    key: "_output_shapes"
    value {
      list {
        shape {
        }
      }
    }
  }
  attr {
    key: "container"
    value {
      s: ""
    }
  }
  attr {
    key: "dtype"
    value {
      type: DT_FLOAT
    }
  }
  attr {
    key: "shape"
    value {
      shape {
        dim {
          size: 32
        }
        dim {
          size: 3
        }
        dim {
          size: 3
        }
      }
    }
  }
  attr {
    key: "shared_name"
    value {
      s: "entropy_bottleneck/matrix_1"
    }
  }
}
node {
  name: "entropy_bottleneck/matrix_1/IsInitialized/VarIsInitializedOp"
  op: "VarIsInitializedOp"
  input: "entropy_bottleneck/matrix_1"
  attr {
    key: "_output_shapes"
    value {
      list {
        shape {
        }
      }
    }
  }
}
node {
  name: "entropy_bottleneck/matrix_1/Assign"
  op: "AssignVariableOp"
  input: "entropy_bottleneck/matrix_1"
  input: "entropy_bottleneck/matrix_1/Initializer/Const"
  attr {
    key: "_class"
    value {
      list {
        s: "loc:@entropy_bottleneck/matrix_1"
      }
    }
  }
  attr {
    key: "dtype"
    value {
      type: DT_FLOAT
    }
  }
}
node {
  name: "entropy_bottleneck/matrix_1/Read/ReadVariableOp"
  op: "ReadVariableOp"
  input: "entropy_bottleneck/matrix_1"
  attr {
    key: "_class"
    value {
      list {
        s: "loc:@entropy_bottleneck/matrix_1"
      }
    }
  }
  attr {
    key: "_output_shapes"
    value {
      list {
        shape {
          dim {
            size: 32
          }
          dim {
            size: 3
          }
          dim {
            size: 3
          }
        }
      }
    }
  }
  attr {
    key: "dtype"
    value {
      type: DT_FLOAT
    }
  }
}
node {
  name: "entropy_bottleneck/Softplus_1/ReadVariableOp"
  op: "ReadVariableOp"
  input: "entropy_bottleneck/matrix_1"
  attr {
    key: "_output_shapes"
    value {
      list {
        shape {
          dim {
            size: 32
          }
          dim {
            size: 3
          }
          dim {
            size: 3
          }
        }
      }
    }
  }
  attr {
    key: "dtype"
    value {
      type: DT_FLOAT
    }
  }
}
node {
  name: "entropy_bottleneck/Softplus_1"
  op: "Softplus"
  input: "entropy_bottleneck/Softplus_1/ReadVariableOp"
  attr {
    key: "T"
    value {
      type: DT_FLOAT
    }
  }
  attr {
    key: "_output_shapes"
    value {
      list {
        shape {
          dim {
            size: 32
          }
          dim {
            size: 3
          }
          dim {
            size: 3
          }
        }
      }
    }
  }
}
node {
  name: "entropy_bottleneck/bias_1/Initializer/random_uniform/shape"
  op: "Const"
  attr {
    key: "_class"
    value {
      list {
        s: "loc:@entropy_bottleneck/bias_1"
      }
    }
  }
  attr {
    key: "_output_shapes"
    value {
      list {
        shape {
          dim {
            size: 3
          }
        }
      }
    }
  }
  attr {
    key: "dtype"
    value {
      type: DT_INT32
    }
  }
  attr {
    key: "value"
    value {
      tensor {
        dtype: DT_INT32
        tensor_shape {
          dim {
            size: 3
          }
        }
        tensor_content: " \000\000\000\003\000\000\000\001\000\000\000"
      }
    }
  }
}
node {
  name: "entropy_bottleneck/bias_1/Initializer/random_uniform/min"
  op: "Const"
  attr {
    key: "_class"
    value {
      list {
        s: "loc:@entropy_bottleneck/bias_1"
      }
    }
  }
  attr {
    key: "_output_shapes"
    value {
      list {
        shape {
        }
      }
    }
  }
  attr {
    key: "dtype"
    value {
      type: DT_FLOAT
    }
  }
  attr {
    key: "value"
    value {
      tensor {
        dtype: DT_FLOAT
        tensor_shape {
        }
        float_val: -0.5
      }
    }
  }
}
node {
  name: "entropy_bottleneck/bias_1/Initializer/random_uniform/max"
  op: "Const"
  attr {
    key: "_class"
    value {
      list {
        s: "loc:@entropy_bottleneck/bias_1"
      }
    }
  }
  attr {
    key: "_output_shapes"
    value {
      list {
        shape {
        }
      }
    }
  }
  attr {
    key: "dtype"
    value {
      type: DT_FLOAT
    }
  }
  attr {
    key: "value"
    value {
      tensor {
        dtype: DT_FLOAT
        tensor_shape {
        }
        float_val: 0.5
      }
    }
  }
}
node {
  name: "entropy_bottleneck/bias_1/Initializer/random_uniform/RandomUniform"
  op: "RandomUniform"
  input: "entropy_bottleneck/bias_1/Initializer/random_uniform/shape"
  attr {
    key: "T"
    value {
      type: DT_INT32
    }
  }
  attr {
    key: "_class"
    value {
      list {
        s: "loc:@entropy_bottleneck/bias_1"
      }
    }
  }
  attr {
    key: "_output_shapes"
    value {
      list {
        shape {
          dim {
            size: 32
          }
          dim {
            size: 3
          }
          dim {
            size: 1
          }
        }
      }
    }
  }
  attr {
    key: "dtype"
    value {
      type: DT_FLOAT
    }
  }
  attr {
    key: "seed"
    value {
      i: 0
    }
  }
  attr {
    key: "seed2"
    value {
      i: 0
    }
  }
}
node {
  name: "entropy_bottleneck/bias_1/Initializer/random_uniform/sub"
  op: "Sub"
  input: "entropy_bottleneck/bias_1/Initializer/random_uniform/max"
  input: "entropy_bottleneck/bias_1/Initializer/random_uniform/min"
  attr {
    key: "T"
    value {
      type: DT_FLOAT
    }
  }
  attr {
    key: "_class"
    value {
      list {
        s: "loc:@entropy_bottleneck/bias_1"
      }
    }
  }
  attr {
    key: "_output_shapes"
    value {
      list {
        shape {
        }
      }
    }
  }
}
node {
  name: "entropy_bottleneck/bias_1/Initializer/random_uniform/mul"
  op: "Mul"
  input: "entropy_bottleneck/bias_1/Initializer/random_uniform/RandomUniform"
  input: "entropy_bottleneck/bias_1/Initializer/random_uniform/sub"
  attr {
    key: "T"
    value {
      type: DT_FLOAT
    }
  }
  attr {
    key: "_class"
    value {
      list {
        s: "loc:@entropy_bottleneck/bias_1"
      }
    }
  }
  attr {
    key: "_output_shapes"
    value {
      list {
        shape {
          dim {
            size: 32
          }
          dim {
            size: 3
          }
          dim {
            size: 1
          }
        }
      }
    }
  }
}
node {
  name: "entropy_bottleneck/bias_1/Initializer/random_uniform"
  op: "Add"
  input: "entropy_bottleneck/bias_1/Initializer/random_uniform/mul"
  input: "entropy_bottleneck/bias_1/Initializer/random_uniform/min"
  attr {
    key: "T"
    value {
      type: DT_FLOAT
    }
  }
  attr {
    key: "_class"
    value {
      list {
        s: "loc:@entropy_bottleneck/bias_1"
      }
    }
  }
  attr {
    key: "_output_shapes"
    value {
      list {
        shape {
          dim {
            size: 32
          }
          dim {
            size: 3
          }
          dim {
            size: 1
          }
        }
      }
    }
  }
}
node {
  name: "entropy_bottleneck/bias_1"
  op: "VarHandleOp"
  attr {
    key: "_class"
    value {
      list {
        s: "loc:@entropy_bottleneck/bias_1"
      }
    }
  }
  attr {
    key: "_output_shapes"
    value {
      list {
        shape {
        }
      }
    }
  }
  attr {
    key: "container"
    value {
      s: ""
    }
  }
  attr {
    key: "dtype"
    value {
      type: DT_FLOAT
    }
  }
  attr {
    key: "shape"
    value {
      shape {
        dim {
          size: 32
        }
        dim {
          size: 3
        }
        dim {
          size: 1
        }
      }
    }
  }
  attr {
    key: "shared_name"
    value {
      s: "entropy_bottleneck/bias_1"
    }
  }
}
node {
  name: "entropy_bottleneck/bias_1/IsInitialized/VarIsInitializedOp"
  op: "VarIsInitializedOp"
  input: "entropy_bottleneck/bias_1"
  attr {
    key: "_output_shapes"
    value {
      list {
        shape {
        }
      }
    }
  }
}
node {
  name: "entropy_bottleneck/bias_1/Assign"
  op: "AssignVariableOp"
  input: "entropy_bottleneck/bias_1"
  input: "entropy_bottleneck/bias_1/Initializer/random_uniform"
  attr {
    key: "_class"
    value {
      list {
        s: "loc:@entropy_bottleneck/bias_1"
      }
    }
  }
  attr {
    key: "dtype"
    value {
      type: DT_FLOAT
    }
  }
}
node {
  name: "entropy_bottleneck/bias_1/Read/ReadVariableOp"
  op: "ReadVariableOp"
  input: "entropy_bottleneck/bias_1"
  attr {
    key: "_class"
    value {
      list {
        s: "loc:@entropy_bottleneck/bias_1"
      }
    }
  }
  attr {
    key: "_output_shapes"
    value {
      list {
        shape {
          dim {
            size: 32
          }
          dim {
            size: 3
          }
          dim {
            size: 1
          }
        }
      }
    }
  }
  attr {
    key: "dtype"
    value {
      type: DT_FLOAT
    }
  }
}
node {
  name: "entropy_bottleneck/factor_1/Initializer/zeros"
  op: "Const"
  attr {
    key: "_class"
    value {
      list {
        s: "loc:@entropy_bottleneck/factor_1"
      }
    }
  }
  attr {
    key: "_output_shapes"
    value {
      list {
        shape {
          dim {
            size: 32
          }
          dim {
            size: 3
          }
          dim {
            size: 1
          }
        }
      }
    }
  }
  attr {
    key: "dtype"
    value {
      type: DT_FLOAT
    }
  }
  attr {
    key: "value"
    value {
      tensor {
        dtype: DT_FLOAT
        tensor_shape {
          dim {
            size: 32
          }
          dim {
            size: 3
          }
          dim {
            size: 1
          }
        }
        float_val: 0.0
      }
    }
  }
}
node {
  name: "entropy_bottleneck/factor_1"
  op: "VarHandleOp"
  attr {
    key: "_class"
    value {
      list {
        s: "loc:@entropy_bottleneck/factor_1"
      }
    }
  }
  attr {
    key: "_output_shapes"
    value {
      list {
        shape {
        }
      }
    }
  }
  attr {
    key: "container"
    value {
      s: ""
    }
  }
  attr {
    key: "dtype"
    value {
      type: DT_FLOAT
    }
  }
  attr {
    key: "shape"
    value {
      shape {
        dim {
          size: 32
        }
        dim {
          size: 3
        }
        dim {
          size: 1
        }
      }
    }
  }
  attr {
    key: "shared_name"
    value {
      s: "entropy_bottleneck/factor_1"
    }
  }
}
node {
  name: "entropy_bottleneck/factor_1/IsInitialized/VarIsInitializedOp"
  op: "VarIsInitializedOp"
  input: "entropy_bottleneck/factor_1"
  attr {
    key: "_output_shapes"
    value {
      list {
        shape {
        }
      }
    }
  }
}
node {
  name: "entropy_bottleneck/factor_1/Assign"
  op: "AssignVariableOp"
  input: "entropy_bottleneck/factor_1"
  input: "entropy_bottleneck/factor_1/Initializer/zeros"
  attr {
    key: "_class"
    value {
      list {
        s: "loc:@entropy_bottleneck/factor_1"
      }
    }
  }
  attr {
    key: "dtype"
    value {
      type: DT_FLOAT
    }
  }
}
node {
  name: "entropy_bottleneck/factor_1/Read/ReadVariableOp"
  op: "ReadVariableOp"
  input: "entropy_bottleneck/factor_1"
  attr {
    key: "_class"
    value {
      list {
        s: "loc:@entropy_bottleneck/factor_1"
      }
    }
  }
  attr {
    key: "_output_shapes"
    value {
      list {
        shape {
          dim {
            size: 32
          }
          dim {
            size: 3
          }
          dim {
            size: 1
          }
        }
      }
    }
  }
  attr {
    key: "dtype"
    value {
      type: DT_FLOAT
    }
  }
}
node {
  name: "entropy_bottleneck/Tanh_1/ReadVariableOp"
  op: "ReadVariableOp"
  input: "entropy_bottleneck/factor_1"
  attr {
    key: "_output_shapes"
    value {
      list {
        shape {
          dim {
            size: 32
          }
          dim {
            size: 3
          }
          dim {
            size: 1
          }
        }
      }
    }
  }
  attr {
    key: "dtype"
    value {
      type: DT_FLOAT
    }
  }
}
node {
  name: "entropy_bottleneck/Tanh_1"
  op: "Tanh"
  input: "entropy_bottleneck/Tanh_1/ReadVariableOp"
  attr {
    key: "T"
    value {
      type: DT_FLOAT
    }
  }
  attr {
    key: "_output_shapes"
    value {
      list {
        shape {
          dim {
            size: 32
          }
          dim {
            size: 3
          }
          dim {
            size: 1
          }
        }
      }
    }
  }
}
node {
  name: "entropy_bottleneck/matrix_2/Initializer/Const"
  op: "Const"
  attr {
    key: "_class"
    value {
      list {
        s: "loc:@entropy_bottleneck/matrix_2"
      }
    }
  }
  attr {
    key: "_output_shapes"
    value {
      list {
        shape {
          dim {
            size: 32
          }
          dim {
            size: 3
          }
          dim {
            size: 3
          }
        }
      }
    }
  }
  attr {
    key: "dtype"
    value {
      type: DT_FLOAT
    }
  }
  attr {
    key: "value"
    value {
      tensor {
        dtype: DT_FLOAT
        tensor_shape {
          dim {
            size: 32
          }
          dim {
            size: 3
          }
          dim {
            size: 3
          }
        }
        float_val: -1.5790714025497437
      }
    }
  }
}
node {
  name: "entropy_bottleneck/matrix_2"
  op: "VarHandleOp"
  attr {
    key: "_class"
    value {
      list {
        s: "loc:@entropy_bottleneck/matrix_2"
      }
    }
  }
  attr {
    key: "_output_shapes"
    value {
      list {
        shape {
        }
      }
    }
  }
  attr {
    key: "container"
    value {
      s: ""
    }
  }
  attr {
    key: "dtype"
    value {
      type: DT_FLOAT
    }
  }
  attr {
    key: "shape"
    value {
      shape {
        dim {
          size: 32
        }
        dim {
          size: 3
        }
        dim {
          size: 3
        }
      }
    }
  }
  attr {
    key: "shared_name"
    value {
      s: "entropy_bottleneck/matrix_2"
    }
  }
}
node {
  name: "entropy_bottleneck/matrix_2/IsInitialized/VarIsInitializedOp"
  op: "VarIsInitializedOp"
  input: "entropy_bottleneck/matrix_2"
  attr {
    key: "_output_shapes"
    value {
      list {
        shape {
        }
      }
    }
  }
}
node {
  name: "entropy_bottleneck/matrix_2/Assign"
  op: "AssignVariableOp"
  input: "entropy_bottleneck/matrix_2"
  input: "entropy_bottleneck/matrix_2/Initializer/Const"
  attr {
    key: "_class"
    value {
      list {
        s: "loc:@entropy_bottleneck/matrix_2"
      }
    }
  }
  attr {
    key: "dtype"
    value {
      type: DT_FLOAT
    }
  }
}
node {
  name: "entropy_bottleneck/matrix_2/Read/ReadVariableOp"
  op: "ReadVariableOp"
  input: "entropy_bottleneck/matrix_2"
  attr {
    key: "_class"
    value {
      list {
        s: "loc:@entropy_bottleneck/matrix_2"
      }
    }
  }
  attr {
    key: "_output_shapes"
    value {
      list {
        shape {
          dim {
            size: 32
          }
          dim {
            size: 3
          }
          dim {
            size: 3
          }
        }
      }
    }
  }
  attr {
    key: "dtype"
    value {
      type: DT_FLOAT
    }
  }
}
node {
  name: "entropy_bottleneck/Softplus_2/ReadVariableOp"
  op: "ReadVariableOp"
  input: "entropy_bottleneck/matrix_2"
  attr {
    key: "_output_shapes"
    value {
      list {
        shape {
          dim {
            size: 32
          }
          dim {
            size: 3
          }
          dim {
            size: 3
          }
        }
      }
    }
  }
  attr {
    key: "dtype"
    value {
      type: DT_FLOAT
    }
  }
}
node {
  name: "entropy_bottleneck/Softplus_2"
  op: "Softplus"
  input: "entropy_bottleneck/Softplus_2/ReadVariableOp"
  attr {
    key: "T"
    value {
      type: DT_FLOAT
    }
  }
  attr {
    key: "_output_shapes"
    value {
      list {
        shape {
          dim {
            size: 32
          }
          dim {
            size: 3
          }
          dim {
            size: 3
          }
        }
      }
    }
  }
}
node {
  name: "entropy_bottleneck/bias_2/Initializer/random_uniform/shape"
  op: "Const"
  attr {
    key: "_class"
    value {
      list {
        s: "loc:@entropy_bottleneck/bias_2"
      }
    }
  }
  attr {
    key: "_output_shapes"
    value {
      list {
        shape {
          dim {
            size: 3
          }
        }
      }
    }
  }
  attr {
    key: "dtype"
    value {
      type: DT_INT32
    }
  }
  attr {
    key: "value"
    value {
      tensor {
        dtype: DT_INT32
        tensor_shape {
          dim {
            size: 3
          }
        }
        tensor_content: " \000\000\000\003\000\000\000\001\000\000\000"
      }
    }
  }
}
node {
  name: "entropy_bottleneck/bias_2/Initializer/random_uniform/min"
  op: "Const"
  attr {
    key: "_class"
    value {
      list {
        s: "loc:@entropy_bottleneck/bias_2"
      }
    }
  }
  attr {
    key: "_output_shapes"
    value {
      list {
        shape {
        }
      }
    }
  }
  attr {
    key: "dtype"
    value {
      type: DT_FLOAT
    }
  }
  attr {
    key: "value"
    value {
      tensor {
        dtype: DT_FLOAT
        tensor_shape {
        }
        float_val: -0.5
      }
    }
  }
}
node {
  name: "entropy_bottleneck/bias_2/Initializer/random_uniform/max"
  op: "Const"
  attr {
    key: "_class"
    value {
      list {
        s: "loc:@entropy_bottleneck/bias_2"
      }
    }
  }
  attr {
    key: "_output_shapes"
    value {
      list {
        shape {
        }
      }
    }
  }
  attr {
    key: "dtype"
    value {
      type: DT_FLOAT
    }
  }
  attr {
    key: "value"
    value {
      tensor {
        dtype: DT_FLOAT
        tensor_shape {
        }
        float_val: 0.5
      }
    }
  }
}
node {
  name: "entropy_bottleneck/bias_2/Initializer/random_uniform/RandomUniform"
  op: "RandomUniform"
  input: "entropy_bottleneck/bias_2/Initializer/random_uniform/shape"
  attr {
    key: "T"
    value {
      type: DT_INT32
    }
  }
  attr {
    key: "_class"
    value {
      list {
        s: "loc:@entropy_bottleneck/bias_2"
      }
    }
  }
  attr {
    key: "_output_shapes"
    value {
      list {
        shape {
          dim {
            size: 32
          }
          dim {
            size: 3
          }
          dim {
            size: 1
          }
        }
      }
    }
  }
  attr {
    key: "dtype"
    value {
      type: DT_FLOAT
    }
  }
  attr {
    key: "seed"
    value {
      i: 0
    }
  }
  attr {
    key: "seed2"
    value {
      i: 0
    }
  }
}
node {
  name: "entropy_bottleneck/bias_2/Initializer/random_uniform/sub"
  op: "Sub"
  input: "entropy_bottleneck/bias_2/Initializer/random_uniform/max"
  input: "entropy_bottleneck/bias_2/Initializer/random_uniform/min"
  attr {
    key: "T"
    value {
      type: DT_FLOAT
    }
  }
  attr {
    key: "_class"
    value {
      list {
        s: "loc:@entropy_bottleneck/bias_2"
      }
    }
  }
  attr {
    key: "_output_shapes"
    value {
      list {
        shape {
        }
      }
    }
  }
}
node {
  name: "entropy_bottleneck/bias_2/Initializer/random_uniform/mul"
  op: "Mul"
  input: "entropy_bottleneck/bias_2/Initializer/random_uniform/RandomUniform"
  input: "entropy_bottleneck/bias_2/Initializer/random_uniform/sub"
  attr {
    key: "T"
    value {
      type: DT_FLOAT
    }
  }
  attr {
    key: "_class"
    value {
      list {
        s: "loc:@entropy_bottleneck/bias_2"
      }
    }
  }
  attr {
    key: "_output_shapes"
    value {
      list {
        shape {
          dim {
            size: 32
          }
          dim {
            size: 3
          }
          dim {
            size: 1
          }
        }
      }
    }
  }
}
node {
  name: "entropy_bottleneck/bias_2/Initializer/random_uniform"
  op: "Add"
  input: "entropy_bottleneck/bias_2/Initializer/random_uniform/mul"
  input: "entropy_bottleneck/bias_2/Initializer/random_uniform/min"
  attr {
    key: "T"
    value {
      type: DT_FLOAT
    }
  }
  attr {
    key: "_class"
    value {
      list {
        s: "loc:@entropy_bottleneck/bias_2"
      }
    }
  }
  attr {
    key: "_output_shapes"
    value {
      list {
        shape {
          dim {
            size: 32
          }
          dim {
            size: 3
          }
          dim {
            size: 1
          }
        }
      }
    }
  }
}
node {
  name: "entropy_bottleneck/bias_2"
  op: "VarHandleOp"
  attr {
    key: "_class"
    value {
      list {
        s: "loc:@entropy_bottleneck/bias_2"
      }
    }
  }
  attr {
    key: "_output_shapes"
    value {
      list {
        shape {
        }
      }
    }
  }
  attr {
    key: "container"
    value {
      s: ""
    }
  }
  attr {
    key: "dtype"
    value {
      type: DT_FLOAT
    }
  }
  attr {
    key: "shape"
    value {
      shape {
        dim {
          size: 32
        }
        dim {
          size: 3
        }
        dim {
          size: 1
        }
      }
    }
  }
  attr {
    key: "shared_name"
    value {
      s: "entropy_bottleneck/bias_2"
    }
  }
}
node {
  name: "entropy_bottleneck/bias_2/IsInitialized/VarIsInitializedOp"
  op: "VarIsInitializedOp"
  input: "entropy_bottleneck/bias_2"
  attr {
    key: "_output_shapes"
    value {
      list {
        shape {
        }
      }
    }
  }
}
node {
  name: "entropy_bottleneck/bias_2/Assign"
  op: "AssignVariableOp"
  input: "entropy_bottleneck/bias_2"
  input: "entropy_bottleneck/bias_2/Initializer/random_uniform"
  attr {
    key: "_class"
    value {
      list {
        s: "loc:@entropy_bottleneck/bias_2"
      }
    }
  }
  attr {
    key: "dtype"
    value {
      type: DT_FLOAT
    }
  }
}
node {
  name: "entropy_bottleneck/bias_2/Read/ReadVariableOp"
  op: "ReadVariableOp"
  input: "entropy_bottleneck/bias_2"
  attr {
    key: "_class"
    value {
      list {
        s: "loc:@entropy_bottleneck/bias_2"
      }
    }
  }
  attr {
    key: "_output_shapes"
    value {
      list {
        shape {
          dim {
            size: 32
          }
          dim {
            size: 3
          }
          dim {
            size: 1
          }
        }
      }
    }
  }
  attr {
    key: "dtype"
    value {
      type: DT_FLOAT
    }
  }
}
node {
  name: "entropy_bottleneck/factor_2/Initializer/zeros"
  op: "Const"
  attr {
    key: "_class"
    value {
      list {
        s: "loc:@entropy_bottleneck/factor_2"
      }
    }
  }
  attr {
    key: "_output_shapes"
    value {
      list {
        shape {
          dim {
            size: 32
          }
          dim {
            size: 3
          }
          dim {
            size: 1
          }
        }
      }
    }
  }
  attr {
    key: "dtype"
    value {
      type: DT_FLOAT
    }
  }
  attr {
    key: "value"
    value {
      tensor {
        dtype: DT_FLOAT
        tensor_shape {
          dim {
            size: 32
          }
          dim {
            size: 3
          }
          dim {
            size: 1
          }
        }
        float_val: 0.0
      }
    }
  }
}
node {
  name: "entropy_bottleneck/factor_2"
  op: "VarHandleOp"
  attr {
    key: "_class"
    value {
      list {
        s: "loc:@entropy_bottleneck/factor_2"
      }
    }
  }
  attr {
    key: "_output_shapes"
    value {
      list {
        shape {
        }
      }
    }
  }
  attr {
    key: "container"
    value {
      s: ""
    }
  }
  attr {
    key: "dtype"
    value {
      type: DT_FLOAT
    }
  }
  attr {
    key: "shape"
    value {
      shape {
        dim {
          size: 32
        }
        dim {
          size: 3
        }
        dim {
          size: 1
        }
      }
    }
  }
  attr {
    key: "shared_name"
    value {
      s: "entropy_bottleneck/factor_2"
    }
  }
}
node {
  name: "entropy_bottleneck/factor_2/IsInitialized/VarIsInitializedOp"
  op: "VarIsInitializedOp"
  input: "entropy_bottleneck/factor_2"
  attr {
    key: "_output_shapes"
    value {
      list {
        shape {
        }
      }
    }
  }
}
node {
  name: "entropy_bottleneck/factor_2/Assign"
  op: "AssignVariableOp"
  input: "entropy_bottleneck/factor_2"
  input: "entropy_bottleneck/factor_2/Initializer/zeros"
  attr {
    key: "_class"
    value {
      list {
        s: "loc:@entropy_bottleneck/factor_2"
      }
    }
  }
  attr {
    key: "dtype"
    value {
      type: DT_FLOAT
    }
  }
}
node {
  name: "entropy_bottleneck/factor_2/Read/ReadVariableOp"
  op: "ReadVariableOp"
  input: "entropy_bottleneck/factor_2"
  attr {
    key: "_class"
    value {
      list {
        s: "loc:@entropy_bottleneck/factor_2"
      }
    }
  }
  attr {
    key: "_output_shapes"
    value {
      list {
        shape {
          dim {
            size: 32
          }
          dim {
            size: 3
          }
          dim {
            size: 1
          }
        }
      }
    }
  }
  attr {
    key: "dtype"
    value {
      type: DT_FLOAT
    }
  }
}
node {
  name: "entropy_bottleneck/Tanh_2/ReadVariableOp"
  op: "ReadVariableOp"
  input: "entropy_bottleneck/factor_2"
  attr {
    key: "_output_shapes"
    value {
      list {
        shape {
          dim {
            size: 32
          }
          dim {
            size: 3
          }
          dim {
            size: 1
          }
        }
      }
    }
  }
  attr {
    key: "dtype"
    value {
      type: DT_FLOAT
    }
  }
}
node {
  name: "entropy_bottleneck/Tanh_2"
  op: "Tanh"
  input: "entropy_bottleneck/Tanh_2/ReadVariableOp"
  attr {
    key: "T"
    value {
      type: DT_FLOAT
    }
  }
  attr {
    key: "_output_shapes"
    value {
      list {
        shape {
          dim {
            size: 32
          }
          dim {
            size: 3
          }
          dim {
            size: 1
          }
        }
      }
    }
  }
}
node {
  name: "entropy_bottleneck/matrix_3/Initializer/Const"
  op: "Const"
  attr {
    key: "_class"
    value {
      list {
        s: "loc:@entropy_bottleneck/matrix_3"
      }
    }
  }
  attr {
    key: "_output_shapes"
    value {
      list {
        shape {
          dim {
            size: 32
          }
          dim {
            size: 1
          }
          dim {
            size: 3
          }
        }
      }
    }
  }
  attr {
    key: "dtype"
    value {
      type: DT_FLOAT
    }
  }
  attr {
    key: "value"
    value {
      tensor {
        dtype: DT_FLOAT
        tensor_shape {
          dim {
            size: 32
          }
          dim {
            size: 1
          }
          dim {
            size: 3
          }
        }
        float_val: -0.2813340127468109
      }
    }
  }
}
node {
  name: "entropy_bottleneck/matrix_3"
  op: "VarHandleOp"
  attr {
    key: "_class"
    value {
      list {
        s: "loc:@entropy_bottleneck/matrix_3"
      }
    }
  }
  attr {
    key: "_output_shapes"
    value {
      list {
        shape {
        }
      }
    }
  }
  attr {
    key: "container"
    value {
      s: ""
    }
  }
  attr {
    key: "dtype"
    value {
      type: DT_FLOAT
    }
  }
  attr {
    key: "shape"
    value {
      shape {
        dim {
          size: 32
        }
        dim {
          size: 1
        }
        dim {
          size: 3
        }
      }
    }
  }
  attr {
    key: "shared_name"
    value {
      s: "entropy_bottleneck/matrix_3"
    }
  }
}
node {
  name: "entropy_bottleneck/matrix_3/IsInitialized/VarIsInitializedOp"
  op: "VarIsInitializedOp"
  input: "entropy_bottleneck/matrix_3"
  attr {
    key: "_output_shapes"
    value {
      list {
        shape {
        }
      }
    }
  }
}
node {
  name: "entropy_bottleneck/matrix_3/Assign"
  op: "AssignVariableOp"
  input: "entropy_bottleneck/matrix_3"
  input: "entropy_bottleneck/matrix_3/Initializer/Const"
  attr {
    key: "_class"
    value {
      list {
        s: "loc:@entropy_bottleneck/matrix_3"
…
  op: "AssignVariableOp"
  input: "beta2_power_1"
  input: "save/Identity_19"
  attr {
    key: "dtype"
    value {
      type: DT_FLOAT
    }
  }
}
node {
  name: "save/Identity_20"
  op: "Identity"
  input: "save/RestoreV2:19"
  attr {
    key: "T"
    value {
      type: DT_FLOAT
    }
  }
  attr {
    key: "_output_shapes"
    value {
      list {
        shape {
          unknown_rank: true
        }
      }
    }
  }
}
node {
  name: "save/AssignVariableOp_19"
  op: "AssignVariableOp"
  input: "entropy_bottleneck/bias_0"
  input: "save/Identity_20"
  attr {
    key: "dtype"
    value {
      type: DT_FLOAT
    }
  }
}
node {
  name: "save/Identity_21"
  op: "Identity"
  input: "save/RestoreV2:20"
  attr {
    key: "T"
    value {
      type: DT_FLOAT
    }
  }
  attr {
    key: "_output_shapes"
    value {
      list {
        shape {
          unknown_rank: true
        }
      }
    }
  }
}
node {
  name: "save/AssignVariableOp_20"
  op: "AssignVariableOp"
  input: "entropy_bottleneck/bias_0/Adam"
  input: "save/Identity_21"
  attr {
    key: "dtype"
    value {
      type: DT_FLOAT
    }
  }
}
node {
  name: "save/Identity_22"
  op: "Identity"
  input: "save/RestoreV2:21"
  attr {
    key: "T"
    value {
      type: DT_FLOAT
    }
  }
  attr {
    key: "_output_shapes"
    value {
      list {
        shape {
          unknown_rank: true
        }
      }
    }
  }
}
node {
  name: "save/AssignVariableOp_21"
  op: "AssignVariableOp"
  input: "entropy_bottleneck/bias_0/Adam_1"
  input: "save/Identity_22"
  attr {
    key: "dtype"
    value {
      type: DT_FLOAT
    }
  }
}
node {
  name: "save/Identity_23"
  op: "Identity"
  input: "save/RestoreV2:22"
  attr {
    key: "T"
    value {
      type: DT_FLOAT
    }
  }
  attr {
    key: "_output_shapes"
    value {
      list {
        shape {
          unknown_rank: true
        }
      }
    }
  }
}
node {
  name: "save/AssignVariableOp_22"
  op: "AssignVariableOp"
  input: "entropy_bottleneck/bias_1"
  input: "save/Identity_23"
  attr {
    key: "dtype"
    value {
      type: DT_FLOAT
    }
  }
}
node {
  name: "save/Identity_24"
  op: "Identity"
  input: "save/RestoreV2:23"
  attr {
    key: "T"
    value {
      type: DT_FLOAT
    }
  }
  attr {
    key: "_output_shapes"
    value {
      list {
        shape {
          unknown_rank: true
        }
      }
    }
  }
}
node {
  name: "save/AssignVariableOp_23"
  op: "AssignVariableOp"
  input: "entropy_bottleneck/bias_1/Adam"
  input: "save/Identity_24"
  attr {
    key: "dtype"
    value {
      type: DT_FLOAT
    }
  }
}
node {
  name: "save/Identity_25"
  op: "Identity"
  input: "save/RestoreV2:24"
  attr {
    key: "T"
    value {
      type: DT_FLOAT
    }
  }
  attr {
    key: "_output_shapes"
    value {
      list {
        shape {
          unknown_rank: true
        }
      }
    }
  }
}
node {
  name: "save/AssignVariableOp_24"
  op: "AssignVariableOp"
  input: "entropy_bottleneck/bias_1/Adam_1"
  input: "save/Identity_25"
  attr {
    key: "dtype"
    value {
      type: DT_FLOAT
    }
  }
}
node {
  name: "save/Identity_26"
  op: "Identity"
  input: "save/RestoreV2:25"
  attr {
    key: "T"
    value {
      type: DT_FLOAT
    }
  }
  attr {
    key: "_output_shapes"
    value {
      list {
        shape {
          unknown_rank: true
        }
      }
    }
  }
}
node {
  name: "save/AssignVariableOp_25"
  op: "AssignVariableOp"
  input: "entropy_bottleneck/bias_2"
  input: "save/Identity_26"
  attr {
    key: "dtype"
    value {
      type: DT_FLOAT
    }
  }
}
node {
  name: "save/Identity_27"
  op: "Identity"
  input: "save/RestoreV2:26"
  attr {
    key: "T"
    value {
      type: DT_FLOAT
    }
  }
  attr {
    key: "_output_shapes"
    value {
      list {
        shape {
          unknown_rank: true
        }
      }
    }
  }
}
node {
  name: "save/AssignVariableOp_26"
  op: "AssignVariableOp"
  input: "entropy_bottleneck/bias_2/Adam"
  input: "save/Identity_27"
  attr {
    key: "dtype"
    value {
      type: DT_FLOAT
    }
  }
}
node {
  name: "save/Identity_28"
  op: "Identity"
  input: "save/RestoreV2:27"
  attr {
    key: "T"
    value {
      type: DT_FLOAT
    }
  }
  attr {
    key: "_output_shapes"
    value {
      list {
        shape {
          unknown_rank: true
        }
      }
    }
  }
}
node {
  name: "save/AssignVariableOp_27"
  op: "AssignVariableOp"
  input: "entropy_bottleneck/bias_2/Adam_1"
  input: "save/Identity_28"
  attr {
    key: "dtype"
    value {
      type: DT_FLOAT
    }
  }
}
node {
  name: "save/Identity_29"
  op: "Identity"
  input: "save/RestoreV2:28"
  attr {
    key: "T"
    value {
      type: DT_FLOAT
    }
  }
  attr {
    key: "_output_shapes"
    value {
      list {
        shape {
          unknown_rank: true
        }
      }
    }
  }
}
node {
  name: "save/AssignVariableOp_28"
  op: "AssignVariableOp"
  input: "entropy_bottleneck/bias_3"
  input: "save/Identity_29"
  attr {
    key: "dtype"
    value {
      type: DT_FLOAT
    }
  }
}
node {
  name: "save/Identity_30"
  op: "Identity"
  input: "save/RestoreV2:29"
  attr {
    key: "T"
    value {
      type: DT_FLOAT
    }
  }
  attr {
    key: "_output_shapes"
    value {
      list {
        shape {
          unknown_rank: true
        }
      }
    }
  }
}
node {
  name: "save/AssignVariableOp_29"
  op: "AssignVariableOp"
  input: "entropy_bottleneck/bias_3/Adam"
  input: "save/Identity_30"
  attr {
    key: "dtype"
    value {
      type: DT_FLOAT
    }
  }
}
node {
  name: "save/Identity_31"
  op: "Identity"
  input: "save/RestoreV2:30"
  attr {
    key: "T"
    value {
      type: DT_FLOAT
    }
  }
  attr {
    key: "_output_shapes"
    value {
      list {
        shape {
          unknown_rank: true
        }
      }
    }
  }
}
node {
  name: "save/AssignVariableOp_30"
  op: "AssignVariableOp"
  input: "entropy_bottleneck/bias_3/Adam_1"
  input: "save/Identity_31"
  attr {
    key: "dtype"
    value {
      type: DT_FLOAT
    }
  }
}
node {
  name: "save/Identity_32"
  op: "Identity"
  input: "save/RestoreV2:31"
  attr {
    key: "T"
    value {
      type: DT_INT32
    }
  }
  attr {
    key: "_output_shapes"
    value {
      list {
        shape {
          unknown_rank: true
        }
      }
    }
  }
}
node {
  name: "save/AssignVariableOp_31"
  op: "AssignVariableOp"
  input: "entropy_bottleneck/cdf_length"
  input: "save/Identity_32"
  attr {
    key: "dtype"
    value {
      type: DT_INT32
    }
  }
}
node {
  name: "save/Identity_33"
  op: "Identity"
  input: "save/RestoreV2:32"
  attr {
    key: "T"
    value {
      type: DT_FLOAT
    }
  }
  attr {
    key: "_output_shapes"
    value {
      list {
        shape {
          unknown_rank: true
        }
      }
    }
  }
}
node {
  name: "save/AssignVariableOp_32"
  op: "AssignVariableOp"
  input: "entropy_bottleneck/factor_0"
  input: "save/Identity_33"
  attr {
    key: "dtype"
    value {
      type: DT_FLOAT
    }
  }
}
node {
  name: "save/Identity_34"
  op: "Identity"
  input: "save/RestoreV2:33"
  attr {
    key: "T"
    value {
      type: DT_FLOAT
    }
  }
  attr {
    key: "_output_shapes"
    value {
      list {
        shape {
          unknown_rank: true
        }
      }
    }
  }
}
node {
  name: "save/AssignVariableOp_33"
  op: "AssignVariableOp"
  input: "entropy_bottleneck/factor_0/Adam"
  input: "save/Identity_34"
  attr {
    key: "dtype"
    value {
      type: DT_FLOAT
    }
  }
}
node {
  name: "save/Identity_35"
  op: "Identity"
  input: "save/RestoreV2:34"
  attr {
    key: "T"
    value {
      type: DT_FLOAT
    }
  }
  attr {
    key: "_output_shapes"
    value {
      list {
        shape {
          unknown_rank: true
        }
      }
    }
  }
}
node {
  name: "save/AssignVariableOp_34"
  op: "AssignVariableOp"
  input: "entropy_bottleneck/factor_0/Adam_1"
  input: "save/Identity_35"
  attr {
    key: "dtype"
    value {
      type: DT_FLOAT
    }
  }
}
node {
  name: "save/Identity_36"
  op: "Identity"
  input: "save/RestoreV2:35"
  attr {
    key: "T"
    value {
      type: DT_FLOAT
    }
  }
  attr {
    key: "_output_shapes"
    value {
      list {
        shape {
          unknown_rank: true
        }
      }
    }
  }
}
node {
  name: "save/AssignVariableOp_35"
  op: "AssignVariableOp"
  input: "entropy_bottleneck/factor_1"
  input: "save/Identity_36"
  attr {
    key: "dtype"
    value {
      type: DT_FLOAT
    }
  }
}
node {
  name: "save/Identity_37"
  op: "Identity"
  input: "save/RestoreV2:36"
  attr {
    key: "T"
    value {
      type: DT_FLOAT
    }
  }
  attr {
    key: "_output_shapes"
    value {
      list {
        shape {
          unknown_rank: true
        }
      }
    }
  }
}
node {
  name: "save/AssignVariableOp_36"
  op: "AssignVariableOp"
  input: "entropy_bottleneck/factor_1/Adam"
  input: "save/Identity_37"
  attr {
    key: "dtype"
    value {
      type: DT_FLOAT
    }
  }
}
node {
  name: "save/Identity_38"
  op: "Identity"
  input: "save/RestoreV2:37"
  attr {
    key: "T"
    value {
      type: DT_FLOAT
    }
  }
  attr {
    key: "_output_shapes"
    value {
      list {
        shape {
          unknown_rank: true
        }
      }
    }
  }
}
node {
  name: "save/AssignVariableOp_37"
  op: "AssignVariableOp"
  input: "entropy_bottleneck/factor_1/Adam_1"
  input: "save/Identity_38"
  attr {
    key: "dtype"
    value {
      type: DT_FLOAT
    }
  }
}
node {
  name: "save/Identity_39"
  op: "Identity"
  input: "save/RestoreV2:38"
  attr {
    key: "T"
    value {
      type: DT_FLOAT
    }
  }
  attr {
    key: "_output_shapes"
    value {
      list {
        shape {
          unknown_rank: true
        }
      }
    }
  }
}
node {
  name: "save/AssignVariableOp_38"
  op: "AssignVariableOp"
  input: "entropy_bottleneck/factor_2"
  input: "save/Identity_39"
  attr {
    key: "dtype"
    value {
      type: DT_FLOAT
    }
  }
}
node {
  name: "save/Identity_40"
  op: "Identity"
  input: "save/RestoreV2:39"
  attr {
    key: "T"
    value {
      type: DT_FLOAT
    }
  }
  attr {
    key: "_output_shapes"
    value {
      list {
        shape {
          unknown_rank: true
        }
      }
    }
  }
}
node {
  name: "save/AssignVariableOp_39"
  op: "AssignVariableOp"
  input: "entropy_bottleneck/factor_2/Adam"
  input: "save/Identity_40"
  attr {
    key: "dtype"
    value {
      type: DT_FLOAT
    }
  }
}
node {
  name: "save/Identity_41"
  op: "Identity"
  input: "save/RestoreV2:40"
  attr {
    key: "T"
    value {
      type: DT_FLOAT
    }
  }
  attr {
    key: "_output_shapes"
    value {
      list {
        shape {
          unknown_rank: true
        }
      }
    }
  }
}
node {
  name: "save/AssignVariableOp_40"
  op: "AssignVariableOp"
  input: "entropy_bottleneck/factor_2/Adam_1"
  input: "save/Identity_41"
  attr {
    key: "dtype"
    value {
      type: DT_FLOAT
    }
  }
}
node {
  name: "save/Identity_42"
  op: "Identity"
  input: "save/RestoreV2:41"
  attr {
    key: "T"
    value {
      type: DT_FLOAT
    }
  }
  attr {
    key: "_output_shapes"
    value {
      list {
        shape {
          unknown_rank: true
        }
      }
    }
  }
}
node {
  name: "save/AssignVariableOp_41"
  op: "AssignVariableOp"
  input: "entropy_bottleneck/matrix_0"
  input: "save/Identity_42"
  attr {
    key: "dtype"
    value {
      type: DT_FLOAT
    }
  }
}
node {
  name: "save/Identity_43"
  op: "Identity"
  input: "save/RestoreV2:42"
  attr {
    key: "T"
    value {
      type: DT_FLOAT
    }
  }
  attr {
    key: "_output_shapes"
    value {
      list {
        shape {
          unknown_rank: true
        }
      }
    }
  }
}
node {
  name: "save/AssignVariableOp_42"
  op: "AssignVariableOp"
  input: "entropy_bottleneck/matrix_0/Adam"
  input: "save/Identity_43"
  attr {
    key: "dtype"
    value {
      type: DT_FLOAT
    }
  }
}
node {
  name: "save/Identity_44"
  op: "Identity"
  input: "save/RestoreV2:43"
  attr {
    key: "T"
    value {
      type: DT_FLOAT
    }
  }
  attr {
    key: "_output_shapes"
    value {
      list {
        shape {
          unknown_rank: true
        }
      }
    }
  }
}
node {
  name: "save/AssignVariableOp_43"
  op: "AssignVariableOp"
  input: "entropy_bottleneck/matrix_0/Adam_1"
  input: "save/Identity_44"
  attr {
    key: "dtype"
    value {
      type: DT_FLOAT
    }
  }
}
node {
  name: "save/Identity_45"
  op: "Identity"
  input: "save/RestoreV2:44"
  attr {
    key: "T"
    value {
      type: DT_FLOAT
    }
  }
  attr {
    key: "_output_shapes"
    value {
      list {
        shape {
          unknown_rank: true
        }
      }
    }
  }
}
node {
  name: "save/AssignVariableOp_44"
  op: "AssignVariableOp"
  input: "entropy_bottleneck/matrix_1"
  input: "save/Identity_45"
  attr {
    key: "dtype"
    value {
      type: DT_FLOAT
    }
  }
}
node {
  name: "save/Identity_46"
  op: "Identity"
  input: "save/RestoreV2:45"
  attr {
    key: "T"
    value {
      type: DT_FLOAT
    }
  }
  attr {
    key: "_output_shapes"
    value {
      list {
        shape {
          unknown_rank: true
        }
      }
    }
  }
}
node {
  name: "save/AssignVariableOp_45"
  op: "AssignVariableOp"
  input: "entropy_bottleneck/matrix_1/Adam"
  input: "save/Identity_46"
  attr {
    key: "dtype"
    value {
      type: DT_FLOAT
    }
  }
}
node {
  name: "save/Identity_47"
  op: "Identity"
  input: "save/RestoreV2:46"
  attr {
    key: "T"
    value {
      type: DT_FLOAT
    }
  }
  attr {
    key: "_output_shapes"
    value {
      list {
        shape {
          unknown_rank: true
        }
      }
    }
  }
}
node {
  name: "save/AssignVariableOp_46"
  op: "AssignVariableOp"
  input: "entropy_bottleneck/matrix_1/Adam_1"
  input: "save/Identity_47"
  attr {
    key: "dtype"
    value {
      type: DT_FLOAT
    }
  }
}
node {
  name: "save/Identity_48"
  op: "Identity"
  input: "save/RestoreV2:47"
  attr {
    key: "T"
    value {
      type: DT_FLOAT
    }
  }
  attr {
    key: "_output_shapes"
    value {
      list {
        shape {
          unknown_rank: true
        }
      }
    }
  }
}
node {
  name: "save/AssignVariableOp_47"
  op: "AssignVariableOp"
  input: "entropy_bottleneck/matrix_2"
  input: "save/Identity_48"
  attr {
    key: "dtype"
    value {
      type: DT_FLOAT
    }
  }
}
node {
  name: "save/Identity_49"
  op: "Identity"
  input: "save/RestoreV2:48"
  attr {
    key: "T"
    value {
      type: DT_FLOAT
    }
  }
  attr {
    key: "_output_shapes"
    value {
      list {
        shape {
          unknown_rank: true
        }
      }
    }
  }
}
node {
  name: "save/AssignVariableOp_48"
  op: "AssignVariableOp"
  input: "entropy_bottleneck/matrix_2/Adam"
  input: "save/Identity_49"
  attr {
    key: "dtype"
    value {
      type: DT_FLOAT
    }
  }
}
node {
  name: "save/Identity_50"
  op: "Identity"
  input: "save/RestoreV2:49"
  attr {
    key: "T"
    value {
      type: DT_FLOAT
    }
  }
  attr {
    key: "_output_shapes"
    value {
      list {
        shape {
          unknown_rank: true
        }
      }
    }
  }
}
node {
  name: "save/AssignVariableOp_49"
  op: "AssignVariableOp"
  input: "entropy_bottleneck/matrix_2/Adam_1"
  input: "save/Identity_50"
  attr {
    key: "dtype"
    value {
      type: DT_FLOAT
    }
  }
}
node {
  name: "save/Identity_51"
  op: "Identity"
  input: "save/RestoreV2:50"
  attr {
    key: "T"
    value {
      type: DT_FLOAT
    }
  }
  attr {
    key: "_output_shapes"
    value {
      list {
        shape {
          unknown_rank: true
        }
      }
    }
  }
}
node {
  name: "save/AssignVariableOp_50"
  op: "AssignVariableOp"
  input: "entropy_bottleneck/matrix_3"
  input: "save/Identity_51"
  attr {
    key: "dtype"
    value {
      type: DT_FLOAT
    }
  }
}
node {
  name: "save/Identity_52"
  op: "Identity"
  input: "save/RestoreV2:51"
  attr {
    key: "T"
    value {
      type: DT_FLOAT
    }
  }
  attr {
    key: "_output_shapes"
    value {
      list {
        shape {
          unknown_rank: true
        }
      }
    }
  }
}
node {
  name: "save/AssignVariableOp_51"
  op: "AssignVariableOp"
  input: "entropy_bottleneck/matrix_3/Adam"
  input: "save/Identity_52"
  attr {
    key: "dtype"
    value {
      type: DT_FLOAT
    }
  }
}
node {
  name: "save/Identity_53"
  op: "Identity"
  input: "save/RestoreV2:52"
  attr {
    key: "T"
    value {
      type: DT_FLOAT
    }
  }
  attr {
    key: "_output_shapes"
    value {
      list {
        shape {
          unknown_rank: true
        }
      }
    }
  }
}
node {
  name: "save/AssignVariableOp_52"
  op: "AssignVariableOp"
  input: "entropy_bottleneck/matrix_3/Adam_1"
  input: "save/Identity_53"
  attr {
    key: "dtype"
    value {
      type: DT_FLOAT
    }
  }
}
node {
  name: "save/Identity_54"
  op: "Identity"
  input: "save/RestoreV2:53"
  attr {
    key: "T"
    value {
      type: DT_FLOAT
    }
  }
  attr {
    key: "_output_shapes"
    value {
      list {
        shape {
          unknown_rank: true
        }
      }
    }
  }
}
node {
  name: "save/AssignVariableOp_53"
  op: "AssignVariableOp"
  input: "entropy_bottleneck/quantiles"
  input: "save/Identity_54"
  attr {
    key: "dtype"
    value {
      type: DT_FLOAT
    }
  }
}
node {
  name: "save/Identity_55"
  op: "Identity"
  input: "save/RestoreV2:54"
  attr {
    key: "T"
    value {
      type: DT_FLOAT
    }
  }
  attr {
    key: "_output_shapes"
    value {
      list {
        shape {
          unknown_rank: true
        }
      }
    }
  }
}
node {
  name: "save/AssignVariableOp_54"
  op: "AssignVariableOp"
  input: "entropy_bottleneck/quantiles/Adam"
  input: "save/Identity_55"
  attr {
    key: "dtype"
    value {
      type: DT_FLOAT
    }
  }
}
node {
  name: "save/Identity_56"
  op: "Identity"
  input: "save/RestoreV2:55"
  attr {
    key: "T"
    value {
      type: DT_FLOAT
    }
  }
  attr {
    key: "_output_shapes"
    value {
      list {
        shape {
          unknown_rank: true
        }
      }
    }
  }
}
node {
  name: "save/AssignVariableOp_55"
  op: "AssignVariableOp"
  input: "entropy_bottleneck/quantiles/Adam_1"
  input: "save/Identity_56"
  attr {
    key: "dtype"
    value {
      type: DT_FLOAT
    }
  }
}
node {
  name: "save/Identity_57"
  op: "Identity"
  input: "save/RestoreV2:56"
  attr {
    key: "T"
    value {
      type: DT_INT32
    }
  }
  attr {
    key: "_output_shapes"
    value {
      list {
        shape {
          unknown_rank: true
        }
      }
    }
  }
}
node {
  name: "save/AssignVariableOp_56"
  op: "AssignVariableOp"
  input: "entropy_bottleneck/quantized_cdf"
  input: "save/Identity_57"
  attr {
    key: "dtype"
    value {
      type: DT_INT32
    }
  }
}
node {
  name: "save/Identity_58"
  op: "Identity"
  input: "save/RestoreV2:57"
  attr {
    key: "T"
    value {
      type: DT_INT32
    }
  }
  attr {
    key: "_output_shapes"
    value {
      list {
        shape {
          unknown_rank: true
        }
      }
    }
  }
}
node {
  name: "save/AssignVariableOp_57"
  op: "AssignVariableOp"
  input: "gaussian_conditional/cdf_length"
  input: "save/Identity_58"
  attr {
    key: "dtype"
    value {
      type: DT_INT32
    }
  }
}
node {
  name: "save/Identity_59"
  op: "Identity"
  input: "save/RestoreV2:58"
  attr {
    key: "T"
    value {
      type: DT_INT32
    }
  }
  attr {
    key: "_output_shapes"
    value {
      list {
        shape {
          unknown_rank: true
        }
      }
    }
  }
}
node {
  name: "save/AssignVariableOp_58"
  op: "AssignVariableOp"
  input: "gaussian_conditional/quantized_cdf"
  input: "save/Identity_59"
  attr {
    key: "dtype"
    value {
      type: DT_INT32
    }
  }
}
node {
  name: "save/Assign"
  op: "Assign"
  input: "global_step"
  input: "save/RestoreV2:59"
  attr {
    key: "T"
    value {
      type: DT_INT64
    }
  }
  attr {
    key: "_class"
    value {
      list {
        s: "loc:@global_step"
      }
    }
  }
  attr {
    key: "_output_shapes"
    value {
      list {
        shape {
        }
      }
    }
  }
  attr {
    key: "use_locking"
    value {
      b: true
    }
  }
  attr {
    key: "validate_shape"
    value {
      b: true
    }
  }
}
node {
  name: "save/Identity_60"
  op: "Identity"
  input: "save/RestoreV2:60"
  attr {
    key: "T"
    value {
      type: DT_FLOAT
    }
  }
  attr {
    key: "_output_shapes"
    value {
      list {
        shape {
          unknown_rank: true
        }
      }
    }
  }
}
node {
  name: "save/AssignVariableOp_59"
  op: "AssignVariableOp"
  input: "hyper_analysis_transform/layer_0/bias"
  input: "save/Identity_60"
  attr {
    key: "dtype"
    value {
      type: DT_FLOAT
    }
  }
}
node {
  name: "save/Identity_61"
  op: "Identity"
  input: "save/RestoreV2:61"
  attr {
    key: "T"
    value {
      type: DT_FLOAT
    }
  }
  attr {
    key: "_output_shapes"
    value {
      list {
        shape {
          unknown_rank: true
        }
      }
    }
  }
}
node {
  name: "save/AssignVariableOp_60"
  op: "AssignVariableOp"
  input: "hyper_analysis_transform/layer_0/bias/Adam"
  input: "save/Identity_61"
  attr {
    key: "dtype"
    value {
      type: DT_FLOAT
    }
  }
}
node {
  name: "save/Identity_62"
  op: "Identity"
  input: "save/RestoreV2:62"
  attr {
    key: "T"
    value {
      type: DT_FLOAT
    }
  }
  attr {
    key: "_output_shapes"
    value {
      list {
        shape {
          unknown_rank: true
        }
      }
    }
  }
}
node {
  name: "save/AssignVariableOp_61"
  op: "AssignVariableOp"
  input: "hyper_analysis_transform/layer_0/bias/Adam_1"
  input: "save/Identity_62"
  attr {
    key: "dtype"
    value {
      type: DT_FLOAT
    }
  }
}
node {
  name: "save/Identity_63"
  op: "Identity"
  input: "save/RestoreV2:63"
  attr {
    key: "T"
    value {
      type: DT_FLOAT
    }
  }
  attr {
    key: "_output_shapes"
    value {
      list {
        shape {
          unknown_rank: true
        }
      }
    }
  }
}
node {
  name: "save/AssignVariableOp_62"
  op: "AssignVariableOp"
  input: "hyper_analysis_transform/layer_0/kernel_rdft"
  input: "save/Identity_63"
  attr {
    key: "dtype"
    value {
      type: DT_FLOAT
    }
  }
}
node {
  name: "save/Identity_64"
  op: "Identity"
  input: "save/RestoreV2:64"
  attr {
    key: "T"
    value {
      type: DT_FLOAT
    }
  }
  attr {
    key: "_output_shapes"
    value {
      list {
        shape {
          unknown_rank: true
        }
      }
    }
  }
}
node {
  name: "save/AssignVariableOp_63"
  op: "AssignVariableOp"
  input: "hyper_analysis_transform/layer_0/kernel_rdft/Adam"
  input: "save/Identity_64"
  attr {
    key: "dtype"
    value {
      type: DT_FLOAT
    }
  }
}
node {
  name: "save/Identity_65"
  op: "Identity"
  input: "save/RestoreV2:65"
  attr {
    key: "T"
    value {
      type: DT_FLOAT
    }
  }
  attr {
    key: "_output_shapes"
    value {
      list {
        shape {
          unknown_rank: true
        }
      }
    }
  }
}
node {
  name: "save/AssignVariableOp_64"
  op: "AssignVariableOp"
  input: "hyper_analysis_transform/layer_0/kernel_rdft/Adam_1"
  input: "save/Identity_65"
  attr {
    key: "dtype"
    value {
      type: DT_FLOAT
    }
  }
}
node {
  name: "save/Identity_66"
  op: "Identity"
  input: "save/RestoreV2:66"
  attr {
    key: "T"
    value {
      type: DT_FLOAT
    }
  }
  attr {
    key: "_output_shapes"
    value {
      list {
        shape {
          unknown_rank: true
        }
      }
    }
  }
}
node {
  name: "save/AssignVariableOp_65"
  op: "AssignVariableOp"
  input: "hyper_analysis_transform/layer_1/bias"
  input: "save/Identity_66"
  attr {
    key: "dtype"
    value {
      type: DT_FLOAT
    }
  }
}
node {
  name: "save/Identity_67"
  op: "Identity"
  input: "save/RestoreV2:67"
  attr {
    key: "T"
    value {
      type: DT_FLOAT
    }
  }
  attr {
    key: "_output_shapes"
    value {
      list {
        shape {
          unknown_rank: true
        }
      }
    }
  }
}
node {
  name: "save/AssignVariableOp_66"
  op: "AssignVariableOp"
  input: "hyper_analysis_transform/layer_1/bias/Adam"
  input: "save/Identity_67"
  attr {
    key: "dtype"
    value {
      type: DT_FLOAT
    }
  }
}
node {
  name: "save/Identity_68"
  op: "Identity"
  input: "save/RestoreV2:68"
  attr {
    key: "T"
    value {
      type: DT_FLOAT
    }
  }
  attr {
    key: "_output_shapes"
    value {
      list {
        shape {
          unknown_rank: true
        }
      }
    }
  }
}
node {
  name: "save/AssignVariableOp_67"
  op: "AssignVariableOp"
  input: "hyper_analysis_transform/layer_1/bias/Adam_1"
  input: "save/Identity_68"
  attr {
    key: "dtype"
    value {
      type: DT_FLOAT
    }
  }
}
node {
  name: "save/Identity_69"
  op: "Identity"
  input: "save/RestoreV2:69"
  attr {
    key: "T"
    value {
      type: DT_FLOAT
    }
  }
  attr {
    key: "_output_shapes"
    value {
      list {
        shape {
          unknown_rank: true
        }
      }
    }
  }
}
node {
  name: "save/AssignVariableOp_68"
  op: "AssignVariableOp"
  input: "hyper_analysis_transform/layer_1/kernel_rdft"
  input: "save/Identity_69"
  attr {
    key: "dtype"
    value {
      type: DT_FLOAT
    }
  }
}
node {
  name: "save/Identity_70"
  op: "Identity"
  input: "save/RestoreV2:70"
  attr {
    key: "T"
    value {
      type: DT_FLOAT
    }
  }
  attr {
    key: "_output_shapes"
    value {
      list {
        shape {
          unknown_rank: true
        }
      }
    }
  }
}
node {
  name: "save/AssignVariableOp_69"
  op: "AssignVariableOp"
  input: "hyper_analysis_transform/layer_1/kernel_rdft/Adam"
  input: "save/Identity_70"
  attr {
    key: "dtype"
    value {
      type: DT_FLOAT
    }
  }
}
node {
  name: "save/Identity_71"
  op: "Identity"
  input: "save/RestoreV2:71"
  attr {
    key: "T"
    value {
      type: DT_FLOAT
    }
  }
  attr {
    key: "_output_shapes"
    value {
      list {
        shape {
          unknown_rank: true
        }
      }
    }
  }
}
node {
  name: "save/AssignVariableOp_70"
  op: "AssignVariableOp"
  input: "hyper_analysis_transform/layer_1/kernel_rdft/Adam_1"
  input: "save/Identity_71"
  attr {
    key: "dtype"
    value {
      type: DT_FLOAT
    }
  }
}
node {
  name: "save/Identity_72"
  op: "Identity"
  input: "save/RestoreV2:72"
  attr {
    key: "T"
    value {
      type: DT_FLOAT
    }
  }
  attr {
    key: "_output_shapes"
    value {
      list {
        shape {
          unknown_rank: true
        }
      }
    }
  }
}
node {
  name: "save/AssignVariableOp_71"
  op: "AssignVariableOp"
  input: "hyper_analysis_transform/layer_2/kernel_rdft"
  input: "save/Identity_72"
  attr {
    key: "dtype"
    value {
      type: DT_FLOAT
    }
  }
}
node {
  name: "save/Identity_73"
  op: "Identity"
  input: "save/RestoreV2:73"
  attr {
    key: "T"
    value {
      type: DT_FLOAT
    }
  }
  attr {
    key: "_output_shapes"
    value {
      list {
        shape {
          unknown_rank: true
        }
      }
    }
  }
}
node {
  name: "save/AssignVariableOp_72"
  op: "AssignVariableOp"
  input: "hyper_analysis_transform/layer_2/kernel_rdft/Adam"
  input: "save/Identity_73"
  attr {
    key: "dtype"
    value {
      type: DT_FLOAT
    }
  }
}
node {
  name: "save/Identity_74"
  op: "Identity"
  input: "save/RestoreV2:74"
  attr {
    key: "T"
    value {
      type: DT_FLOAT
    }
  }
  attr {
    key: "_output_shapes"
    value {
      list {
        shape {
          unknown_rank: true
        }
      }
    }
  }
}
node {
  name: "save/AssignVariableOp_73"
  op: "AssignVariableOp"
  input: "hyper_analysis_transform/layer_2/kernel_rdft/Adam_1"
  input: "save/Identity_74"
  attr {
    key: "dtype"
    value {
      type: DT_FLOAT
    }
  }
}
node {
  name: "save/Identity_75"
  op: "Identity"
  input: "save/RestoreV2:75"
  attr {
    key: "T"
    value {
      type: DT_FLOAT
    }
  }
  attr {
    key: "_output_shapes"
    value {
      list {
        shape {
          unknown_rank: true
        }
      }
    }
  }
}
node {
  name: "save/AssignVariableOp_74"
  op: "AssignVariableOp"
  input: "hyper_synthesis_transform/layer_0/bias"
  input: "save/Identity_75"
  attr {
    key: "dtype"
    value {
      type: DT_FLOAT
    }
  }
}
node {
  name: "save/Identity_76"
  op: "Identity"
  input: "save/RestoreV2:76"
  attr {
    key: "T"
    value {
      type: DT_FLOAT
    }
  }
  attr {
    key: "_output_shapes"
    value {
      list {
        shape {
          unknown_rank: true
        }
      }
    }
  }
}
node {
  name: "save/AssignVariableOp_75"
  op: "AssignVariableOp"
  input: "hyper_synthesis_transform/layer_0/bias/Adam"
  input: "save/Identity_76"
  attr {
    key: "dtype"
    value {
      type: DT_FLOAT
    }
  }
}
node {
  name: "save/Identity_77"
  op: "Identity"
  input: "save/RestoreV2:77"
  attr {
    key: "T"
    value {
      type: DT_FLOAT
    }
  }
  attr {
    key: "_output_shapes"
    value {
      list {
        shape {
          unknown_rank: true
        }
      }
    }
  }
}
node {
  name: "save/AssignVariableOp_76"
  op: "AssignVariableOp"
  input: "hyper_synthesis_transform/layer_0/bias/Adam_1"
  input: "save/Identity_77"
  attr {
    key: "dtype"
    value {
      type: DT_FLOAT
    }
  }
}
node {
  name: "save/Identity_78"
  op: "Identity"
  input: "save/RestoreV2:78"
  attr {
    key: "T"
    value {
      type: DT_FLOAT
    }
  }
  attr {
    key: "_output_shapes"
    value {
      list {
        shape {
          unknown_rank: true
        }
      }
    }
  }
}
node {
  name: "save/AssignVariableOp_77"
  op: "AssignVariableOp"
  input: "hyper_synthesis_transform/layer_0/kernel"
  input: "save/Identity_78"
  attr {
    key: "dtype"
    value {
      type: DT_FLOAT
    }
  }
}
node {
  name: "save/Identity_79"
  op: "Identity"
  input: "save/RestoreV2:79"
  attr {
    key: "T"
    value {
      type: DT_FLOAT
    }
  }
  attr {
    key: "_output_shapes"
    value {
      list {
        shape {
          unknown_rank: true
        }
      }
    }
  }
}
node {
  name: "save/AssignVariableOp_78"
  op: "AssignVariableOp"
  input: "hyper_synthesis_transform/layer_0/kernel/Adam"
  input: "save/Identity_79"
  attr {
    key: "dtype"
    value {
      type: DT_FLOAT
    }
  }
}
node {
  name: "save/Identity_80"
  op: "Identity"
  input: "save/RestoreV2:80"
  attr {
    key: "T"
    value {
      type: DT_FLOAT
    }
  }
  attr {
    key: "_output_shapes"
    value {
      list {
        shape {
          unknown_rank: true
        }
      }
    }
  }
}
node {
  name: "save/AssignVariableOp_79"
  op: "AssignVariableOp"
  input: "hyper_synthesis_transform/layer_0/kernel/Adam_1"
  input: "save/Identity_80"
  attr {
    key: "dtype"
    value {
      type: DT_FLOAT
    }
  }
}
node {
  name: "save/Identity_81"
  op: "Identity"
  input: "save/RestoreV2:81"
  attr {
    key: "T"
    value {
      type: DT_FLOAT
    }
  }
  attr {
    key: "_output_shapes"
    value {
      list {
        shape {
          unknown_rank: true
        }
      }
    }
  }
}
node {
  name: "save/AssignVariableOp_80"
  op: "AssignVariableOp"
  input: "hyper_synthesis_transform/layer_1/bias"
  input: "save/Identity_81"
  attr {
    key: "dtype"
    value {
      type: DT_FLOAT
    }
  }
}
node {
  name: "save/Identity_82"
  op: "Identity"
  input: "save/RestoreV2:82"
  attr {
    key: "T"
    value {
      type: DT_FLOAT
    }
  }
  attr {
    key: "_output_shapes"
    value {
      list {
        shape {
          unknown_rank: true
        }
      }
    }
  }
}
node {
  name: "save/AssignVariableOp_81"
  op: "AssignVariableOp"
  input: "hyper_synthesis_transform/layer_1/bias/Adam"
  input: "save/Identity_82"
  attr {
    key: "dtype"
    value {
      type: DT_FLOAT
    }
  }
}
node {
  name: "save/Identity_83"
  op: "Identity"
  input: "save/RestoreV2:83"
  attr {
    key: "T"
    value {
      type: DT_FLOAT
    }
  }
  attr {
    key: "_output_shapes"
    value {
      list {
        shape {
          unknown_rank: true
        }
      }
    }
  }
}
node {
  name: "save/AssignVariableOp_82"
  op: "AssignVariableOp"
  input: "hyper_synthesis_transform/layer_1/bias/Adam_1"
  input: "save/Identity_83"
  attr {
    key: "dtype"
    value {
      type: DT_FLOAT
    }
  }
}
node {
  name: "save/Identity_84"
  op: "Identity"
  input: "save/RestoreV2:84"
  attr {
    key: "T"
    value {
      type: DT_FLOAT
    }
  }
  attr {
    key: "_output_shapes"
    value {
      list {
        shape {
          unknown_rank: true
        }
      }
    }
  }
}
node {
  name: "save/AssignVariableOp_83"
  op: "AssignVariableOp"
  input: "hyper_synthesis_transform/layer_1/kernel"
  input: "save/Identity_84"
  attr {
    key: "dtype"
    value {
      type: DT_FLOAT
    }
  }
}
node {
  name: "save/Identity_85"
  op: "Identity"
  input: "save/RestoreV2:85"
  attr {
    key: "T"
    value {
      type: DT_FLOAT
    }
  }
  attr {
    key: "_output_shapes"
    value {
      list {
        shape {
          unknown_rank: true
        }
      }
    }
  }
}
node {
  name: "save/AssignVariableOp_84"
  op: "AssignVariableOp"
  input: "hyper_synthesis_transform/layer_1/kernel/Adam"
  input: "save/Identity_85"
  attr {
    key: "dtype"
    value {
      type: DT_FLOAT
    }
  }
}
node {
  name: "save/Identity_86"
  op: "Identity"
  input: "save/RestoreV2:86"
  attr {
    key: "T"
    value {
      type: DT_FLOAT
    }
  }
  attr {
    key: "_output_shapes"
    value {
      list {
        shape {
          unknown_rank: true
        }
      }
    }
  }
}
node {
  name: "save/AssignVariableOp_85"
  op: "AssignVariableOp"
  input: "hyper_synthesis_transform/layer_1/kernel/Adam_1"
  input: "save/Identity_86"
  attr {
    key: "dtype"
    value {
      type: DT_FLOAT
    }
  }
}
node {
  name: "save/Identity_87"
  op: "Identity"
  input: "save/RestoreV2:87"
  attr {
    key: "T"
    value {
      type: DT_FLOAT
    }
  }
  attr {
    key: "_output_shapes"
    value {
      list {
        shape {
          unknown_rank: true
        }
      }
    }
  }
}
node {
  name: "save/AssignVariableOp_86"
  op: "AssignVariableOp"
  input: "hyper_synthesis_transform/layer_2/bias"
  input: "save/Identity_87"
  attr {
    key: "dtype"
    value {
      type: DT_FLOAT
    }
  }
}
node {
  name: "save/Identity_88"
  op: "Identity"
  input: "save/RestoreV2:88"
  attr {
    key: "T"
    value {
      type: DT_FLOAT
    }
  }
  attr {
    key: "_output_shapes"
    value {
      list {
        shape {
          unknown_rank: true
        }
      }
    }
  }
}
node {
  name: "save/AssignVariableOp_87"
  op: "AssignVariableOp"
  input: "hyper_synthesis_transform/layer_2/bias/Adam"
  input: "save/Identity_88"
  attr {
    key: "dtype"
    value {
      type: DT_FLOAT
    }
  }
}
node {
  name: "save/Identity_89"
  op: "Identity"
  input: "save/RestoreV2:89"
  attr {
    key: "T"
    value {
      type: DT_FLOAT
    }
  }
  attr {
    key: "_output_shapes"
    value {
      list {
        shape {
          unknown_rank: true
        }
      }
    }
  }
}
node {
  name: "save/AssignVariableOp_88"
  op: "AssignVariableOp"
  input: "hyper_synthesis_transform/layer_2/bias/Adam_1"
  input: "save/Identity_89"
  attr {
    key: "dtype"
    value {
      type: DT_FLOAT
    }
  }
}
node {
  name: "save/Identity_90"
  op: "Identity"
  input: "save/RestoreV2:90"
  attr {
    key: "T"
    value {
      type: DT_FLOAT
    }
  }
  attr {
    key: "_output_shapes"
    value {
      list {
        shape {
          unknown_rank: true
        }
      }
    }
  }
}
node {
  name: "save/AssignVariableOp_89"
  op: "AssignVariableOp"
  input: "hyper_synthesis_transform/layer_2/kernel"
  input: "save/Identity_90"
  attr {
    key: "dtype"
    value {
      type: DT_FLOAT
    }
  }
}
node {
  name: "save/Identity_91"
  op: "Identity"
  input: "save/RestoreV2:91"
  attr {
    key: "T"
    value {
      type: DT_FLOAT
    }
  }
  attr {
    key: "_output_shapes"
    value {
      list {
        shape {
          unknown_rank: true
        }
      }
    }
  }
}
node {
  name: "save/AssignVariableOp_90"
  op: "AssignVariableOp"
  input: "hyper_synthesis_transform/layer_2/kernel/Adam"
  input: "save/Identity_91"
  attr {
    key: "dtype"
    value {
      type: DT_FLOAT
    }
  }
}
node {
  name: "save/Identity_92"
  op: "Identity"
  input: "save/RestoreV2:92"
  attr {
    key: "T"
    value {
      type: DT_FLOAT
    }
  }
  attr {
    key: "_output_shapes"
    value {
      list {
        shape {
          unknown_rank: true
        }
      }
    }
  }
}
node {
  name: "save/AssignVariableOp_91"
  op: "AssignVariableOp"
  input: "hyper_synthesis_transform/layer_2/kernel/Adam_1"
  input: "save/Identity_92"
  attr {
    key: "dtype"
    value {
      type: DT_FLOAT
    }
  }
}
node {
  name: "save/Identity_93"
  op: "Identity"
  input: "save/RestoreV2:93"
  attr {
    key: "T"
    value {
      type: DT_FLOAT
    }
  }
  attr {
    key: "_output_shapes"
    value {
      list {
        shape {
          unknown_rank: true
        }
      }
    }
  }
}
node {
  name: "save/AssignVariableOp_92"
  op: "AssignVariableOp"
  input: "synthesis_transform/layer_0/bias"
  input: "save/Identity_93"
  attr {
    key: "dtype"
    value {
      type: DT_FLOAT
    }
  }
}
node {
  name: "save/Identity_94"
  op: "Identity"
  input: "save/RestoreV2:94"
  attr {
    key: "T"
    value {
      type: DT_FLOAT
    }
  }
  attr {
    key: "_output_shapes"
    value {
      list {
        shape {
          unknown_rank: true
        }
      }
    }
  }
}
node {
  name: "save/AssignVariableOp_93"
  op: "AssignVariableOp"
  input: "synthesis_transform/layer_0/bias/Adam"
  input: "save/Identity_94"
  attr {
    key: "dtype"
    value {
      type: DT_FLOAT
    }
  }
}
node {
  name: "save/Identity_95"
  op: "Identity"
  input: "save/RestoreV2:95"
  attr {
    key: "T"
    value {
      type: DT_FLOAT
    }
  }
  attr {
    key: "_output_shapes"
    value {
      list {
        shape {
          unknown_rank: true
        }
      }
    }
  }
}
node {
  name: "save/AssignVariableOp_94"
  op: "AssignVariableOp"
  input: "synthesis_transform/layer_0/bias/Adam_1"
  input: "save/Identity_95"
  attr {
    key: "dtype"
    value {
      type: DT_FLOAT
    }
  }
}
node {
  name: "save/Identity_96"
  op: "Identity"
  input: "save/RestoreV2:96"
  attr {
    key: "T"
    value {
      type: DT_FLOAT
    }
  }
  attr {
    key: "_output_shapes"
    value {
      list {
        shape {
          unknown_rank: true
        }
      }
    }
  }
}
node {
  name: "save/AssignVariableOp_95"
  op: "AssignVariableOp"
  input: "synthesis_transform/layer_0/kernel_rdft"
  input: "save/Identity_96"
  attr {
    key: "dtype"
    value {
      type: DT_FLOAT
    }
  }
}
node {
  name: "save/Identity_97"
  op: "Identity"
  input: "save/RestoreV2:97"
  attr {
    key: "T"
    value {
      type: DT_FLOAT
    }
  }
  attr {
    key: "_output_shapes"
    value {
      list {
        shape {
          unknown_rank: true
        }
      }
    }
  }
}
node {
  name: "save/AssignVariableOp_96"
  op: "AssignVariableOp"
  input: "synthesis_transform/layer_0/kernel_rdft/Adam"
  input: "save/Identity_97"
  attr {
    key: "dtype"
    value {
      type: DT_FLOAT
    }
  }
}
node {
  name: "save/Identity_98"
  op: "Identity"
  input: "save/RestoreV2:98"
  attr {
    key: "T"
    value {
      type: DT_FLOAT
    }
  }
  attr {
    key: "_output_shapes"
    value {
      list {
        shape {
          unknown_rank: true
        }
      }
    }
  }
}
node {
  name: "save/AssignVariableOp_97"
  op: "AssignVariableOp"
  input: "synthesis_transform/layer_0/kernel_rdft/Adam_1"
  input: "save/Identity_98"
  attr {
    key: "dtype"
    value {
      type: DT_FLOAT
    }
  }
}
node {
  name: "save/Identity_99"
  op: "Identity"
  input: "save/RestoreV2:99"
  attr {
    key: "T"
    value {
      type: DT_FLOAT
    }
  }
  attr {
    key: "_output_shapes"
    value {
      list {
        shape {
          unknown_rank: true
        }
      }
    }
  }
}
node {
  name: "save/AssignVariableOp_98"
  op: "AssignVariableOp"
  input: "synthesis_transform/layer_1/bias"
  input: "save/Identity_99"
  attr {
    key: "dtype"
    value {
      type: DT_FLOAT
    }
  }
}
node {
  name: "save/Identity_100"
  op: "Identity"
  input: "save/RestoreV2:100"
  attr {
    key: "T"
    value {
      type: DT_FLOAT
    }
  }
  attr {
    key: "_output_shapes"
    value {
      list {
        shape {
          unknown_rank: true
        }
      }
    }
  }
}
node {
  name: "save/AssignVariableOp_99"
  op: "AssignVariableOp"
  input: "synthesis_transform/layer_1/bias/Adam"
  input: "save/Identity_100"
  attr {
    key: "dtype"
    value {
      type: DT_FLOAT
    }
  }
}
node {
  name: "save/Identity_101"
  op: "Identity"
  input: "save/RestoreV2:101"
  attr {
    key: "T"
    value {
      type: DT_FLOAT
    }
  }
  attr {
    key: "_output_shapes"
    value {
      list {
        shape {
          unknown_rank: true
        }
      }
    }
  }
}
node {
  name: "save/AssignVariableOp_100"
  op: "AssignVariableOp"
  input: "synthesis_transform/layer_1/bias/Adam_1"
  input: "save/Identity_101"
  attr {
    key: "dtype"
    value {
      type: DT_FLOAT
    }
  }
}
node {
  name: "save/Identity_102"
  op: "Identity"
  input: "save/RestoreV2:102"
  attr {
    key: "T"
    value {
      type: DT_FLOAT
    }
  }
  attr {
    key: "_output_shapes"
    value {
      list {
        shape {
          unknown_rank: true
        }
      }
    }
  }
}
node {
  name: "save/AssignVariableOp_101"
  op: "AssignVariableOp"
  input: "synthesis_transform/layer_1/kernel_rdft"
  input: "save/Identity_102"
  attr {
    key: "dtype"
    value {
      type: DT_FLOAT
    }
  }
}
node {
  name: "save/Identity_103"
  op: "Identity"
  input: "save/RestoreV2:103"
  attr {
    key: "T"
    value {
      type: DT_FLOAT
    }
  }
  attr {
    key: "_output_shapes"
    value {
      list {
        shape {
          unknown_rank: true
        }
      }
    }
  }
}
node {
  name: "save/AssignVariableOp_102"
  op: "AssignVariableOp"
  input: "synthesis_transform/layer_1/kernel_rdft/Adam"
  input: "save/Identity_103"
  attr {
    key: "dtype"
    value {
      type: DT_FLOAT
    }
  }
}
node {
  name: "save/Identity_104"
  op: "Identity"
  input: "save/RestoreV2:104"
  attr {
    key: "T"
    value {
      type: DT_FLOAT
    }
  }
  attr {
    key: "_output_shapes"
    value {
      list {
        shape {
          unknown_rank: true
        }
      }
    }
  }
}
node {
  name: "save/AssignVariableOp_103"
  op: "AssignVariableOp"
  input: "synthesis_transform/layer_1/kernel_rdft/Adam_1"
  input: "save/Identity_104"
  attr {
    key: "dtype"
    value {
      type: DT_FLOAT
    }
  }
}
node {
  name: "save/Identity_105"
  op: "Identity"
  input: "save/RestoreV2:105"
  attr {
    key: "T"
    value {
      type: DT_FLOAT
    }
  }
  attr {
    key: "_output_shapes"
    value {
      list {
        shape {
          unknown_rank: true
        }
      }
    }
  }
}
node {
  name: "save/AssignVariableOp_104"
  op: "AssignVariableOp"
  input: "synthesis_transform/layer_2/bias"
  input: "save/Identity_105"
  attr {
    key: "dtype"
    value {
      type: DT_FLOAT
    }
  }
}
node {
  name: "save/Identity_106"
  op: "Identity"
  input: "save/RestoreV2:106"
  attr {
    key: "T"
    value {
      type: DT_FLOAT
    }
  }
  attr {
    key: "_output_shapes"
    value {
      list {
        shape {
          unknown_rank: true
        }
      }
    }
  }
}
node {
  name: "save/AssignVariableOp_105"
  op: "AssignVariableOp"
  input: "synthesis_transform/layer_2/bias/Adam"
  input: "save/Identity_106"
  attr {
    key: "dtype"
    value {
      type: DT_FLOAT
    }
  }
}
node {
  name: "save/Identity_107"
  op: "Identity"
  input: "save/RestoreV2:107"
  attr {
    key: "T"
    value {
      type: DT_FLOAT
    }
  }
  attr {
    key: "_output_shapes"
    value {
      list {
        shape {
          unknown_rank: true
        }
      }
    }
  }
}
node {
  name: "save/AssignVariableOp_106"
  op: "AssignVariableOp"
  input: "synthesis_transform/layer_2/bias/Adam_1"
  input: "save/Identity_107"
  attr {
    key: "dtype"
    value {
      type: DT_FLOAT
    }
  }
}
node {
  name: "save/Identity_108"
  op: "Identity"
  input: "save/RestoreV2:108"
  attr {
    key: "T"
    value {
      type: DT_FLOAT
    }
  }
  attr {
    key: "_output_shapes"
    value {
      list {
        shape {
          unknown_rank: true
        }
      }
    }
  }
}
node {
  name: "save/AssignVariableOp_107"
  op: "AssignVariableOp"
  input: "synthesis_transform/layer_2/kernel_rdft"
  input: "save/Identity_108"
  attr {
    key: "dtype"
    value {
      type: DT_FLOAT
    }
  }
}
node {
  name: "save/Identity_109"
  op: "Identity"
  input: "save/RestoreV2:109"
  attr {
    key: "T"
    value {
      type: DT_FLOAT
    }
  }
  attr {
    key: "_output_shapes"
    value {
      list {
        shape {
          unknown_rank: true
        }
      }
    }
  }
}
node {
  name: "save/AssignVariableOp_108"
  op: "AssignVariableOp"
  input: "synthesis_transform/layer_2/kernel_rdft/Adam"
  input: "save/Identity_109"
  attr {
    key: "dtype"
    value {
      type: DT_FLOAT
    }
  }
}
node {
  name: "save/Identity_110"
  op: "Identity"
  input: "save/RestoreV2:110"
  attr {
    key: "T"
    value {
      type: DT_FLOAT
    }
  }
  attr {
    key: "_output_shapes"
    value {
      list {
        shape {
          unknown_rank: true
        }
      }
    }
  }
}
node {
  name: "save/AssignVariableOp_109"
  op: "AssignVariableOp"
  input: "synthesis_transform/layer_2/kernel_rdft/Adam_1"
  input: "save/Identity_110"
  attr {
    key: "dtype"
    value {
      type: DT_FLOAT
    }
  }
}
node {
  name: "save/restore_shard"
  op: "NoOp"
  input: "^save/Assign"
  input: "^save/AssignVariableOp"
  input: "^save/AssignVariableOp_1"
  input: "^save/AssignVariableOp_10"
  input: "^save/AssignVariableOp_100"
  input: "^save/AssignVariableOp_101"
  input: "^save/AssignVariableOp_102"
  input: "^save/AssignVariableOp_103"
  input: "^save/AssignVariableOp_104"
  input: "^save/AssignVariableOp_105"
  input: "^save/AssignVariableOp_106"
  input: "^save/AssignVariableOp_107"
  input: "^save/AssignVariableOp_108"
  input: "^save/AssignVariableOp_109"
  input: "^save/AssignVariableOp_11"
  input: "^save/AssignVariableOp_12"
  input: "^save/AssignVariableOp_13"
  input: "^save/AssignVariableOp_14"
  input: "^save/AssignVariableOp_15"
  input: "^save/AssignVariableOp_16"
  input: "^save/AssignVariableOp_17"
  input: "^save/AssignVariableOp_18"
  input: "^save/AssignVariableOp_19"
  input: "^save/AssignVariableOp_2"
  input: "^save/AssignVariableOp_20"
  input: "^save/AssignVariableOp_21"
  input: "^save/AssignVariableOp_22"
  input: "^save/AssignVariableOp_23"
  input: "^save/AssignVariableOp_24"
  input: "^save/AssignVariableOp_25"
  input: "^save/AssignVariableOp_26"
  input: "^save/AssignVariableOp_27"
  input: "^save/AssignVariableOp_28"
  input: "^save/AssignVariableOp_29"
  input: "^save/AssignVariableOp_3"
  input: "^save/AssignVariableOp_30"
  input: "^save/AssignVariableOp_31"
  input: "^save/AssignVariableOp_32"
  input: "^save/AssignVariableOp_33"
  input: "^save/AssignVariableOp_34"
  input: "^save/AssignVariableOp_35"
  input: "^save/AssignVariableOp_36"
  input: "^save/AssignVariableOp_37"
  input: "^save/AssignVariableOp_38"
  input: "^save/AssignVariableOp_39"
  input: "^save/AssignVariableOp_4"
  input: "^save/AssignVariableOp_40"
  input: "^save/AssignVariableOp_41"
  input: "^save/AssignVariableOp_42"
  input: "^save/AssignVariableOp_43"
  input: "^save/AssignVariableOp_44"
  input: "^save/AssignVariableOp_45"
  input: "^save/AssignVariableOp_46"
  input: "^save/AssignVariableOp_47"
  input: "^save/AssignVariableOp_48"
  input: "^save/AssignVariableOp_49"
  input: "^save/AssignVariableOp_5"
  input: "^save/AssignVariableOp_50"
  input: "^save/AssignVariableOp_51"
  input: "^save/AssignVariableOp_52"
  input: "^save/AssignVariableOp_53"
  input: "^save/AssignVariableOp_54"
  input: "^save/AssignVariableOp_55"
  input: "^save/AssignVariableOp_56"
  input: "^save/AssignVariableOp_57"
  input: "^save/AssignVariableOp_58"
  input: "^save/AssignVariableOp_59"
  input: "^save/AssignVariableOp_6"
  input: "^save/AssignVariableOp_60"
  input: "^save/AssignVariableOp_61"
  input: "^save/AssignVariableOp_62"
  input: "^save/AssignVariableOp_63"
  input: "^save/AssignVariableOp_64"
  input: "^save/AssignVariableOp_65"
  input: "^save/AssignVariableOp_66"
  input: "^save/AssignVariableOp_67"
  input: "^save/AssignVariableOp_68"
  input: "^save/AssignVariableOp_69"
  input: "^save/AssignVariableOp_7"
  input: "^save/AssignVariableOp_70"
  input: "^save/AssignVariableOp_71"
  input: "^save/AssignVariableOp_72"
  input: "^save/AssignVariableOp_73"
  input: "^save/AssignVariableOp_74"
  input: "^save/AssignVariableOp_75"
  input: "^save/AssignVariableOp_76"
  input: "^save/AssignVariableOp_77"
  input: "^save/AssignVariableOp_78"
  input: "^save/AssignVariableOp_79"
  input: "^save/AssignVariableOp_8"
  input: "^save/AssignVariableOp_80"
  input: "^save/AssignVariableOp_81"
  input: "^save/AssignVariableOp_82"
  input: "^save/AssignVariableOp_83"
  input: "^save/AssignVariableOp_84"
  input: "^save/AssignVariableOp_85"
  input: "^save/AssignVariableOp_86"
  input: "^save/AssignVariableOp_87"
  input: "^save/AssignVariableOp_88"
  input: "^save/AssignVariableOp_89"
  input: "^save/AssignVariableOp_9"
  input: "^save/AssignVariableOp_90"
  input: "^save/AssignVariableOp_91"
  input: "^save/AssignVariableOp_92"
  input: "^save/AssignVariableOp_93"
  input: "^save/AssignVariableOp_94"
  input: "^save/AssignVariableOp_95"
  input: "^save/AssignVariableOp_96"
  input: "^save/AssignVariableOp_97"
  input: "^save/AssignVariableOp_98"
  input: "^save/AssignVariableOp_99"
}
node {
  name: "save/restore_all"
  op: "NoOp"
  input: "^save/restore_shard"
}
versions {
  producer: 38
}
